models/movement_mlp_h128_best.pt (torch, 75081 bytes, 6 tensors)

net.0.weight f4 [128, 5]
000000 15 cf 56 bf 59 08 ac be d6 2d bf be 95 84 15 3d
       -0.8390973 -0.3360012 -0.37339658 0.036503393
000010 82 58 67 3e 66 5e 89 3b 96 41 93 bc 0e 63 40 bd
       0.22592357 0.0041921614 -0.01797561 -0.046969466
000020 ee a6 e7 bd 1b 15 8c 3d de 21 10 bf 95 d2 06 bc
       -0.11311136 0.06839963 -0.5630168 -0.008228918
000030 8d 1e 17 bf 70 6e 69 3e aa 3f 8a 3e ff 39 98 3d
       -0.5903099 0.22796035 0.27001697 0.07432937
000040 d5 52 80 3e ff d1 62 3e b3 7a 37 3f b3 ce 5d 3e
       0.25063196 0.2215042 0.716716 0.2166088
000050 a0 8f b4 3c 0b af 2e bc bd bb 86 3c 02 1a 20 bc
       0.022041142 -0.010661851 0.016446942 -0.009771826
000060 6c 78 26 ba 43 29 a2 bd ee 0d 2a 3f ca 8a f3 be
       -0.0006350342 -0.07918026 0.66427505 -0.47566825
000070 43 24 a7 3e bb be a1 bd 5a 6b 98 3c cc 4f 26 bc
       0.32644853 -0.07897707 0.018605877 -0.010150861
000080 05 c8 7f 3c 54 f1 a0 3c 54 f1 12 3c 0a bc 7f 3d
       0.015611653 0.019646324 0.00896867 0.062435187
000090 cf cb 2f 3d 4c dc 55 bc fb dc 06 3d 4b f7 a8 bd
       0.042918976 -0.013053011 0.032925587 -0.082502924
0000a0 bb c6 48 bf 24 21 d5 3e 07 b7 00 3f 94 c4 84 be
       -0.7842824 0.41626847 0.5027928 -0.25931227
0000b0 1b 75 a6 be 34 d2 bc be 54 40 e8 be dd b7 31 3f
       -0.3251122 -0.36879122 -0.45361578 0.6942118
0000c0 e4 61 60 3f 0e 47 e1 3e 99 cc c1 3d 4b 21 22 3e
       0.8764937 0.43999523 0.09462852 0.15833013
0000d0 be 18 5f 3e 23 7c 03 3f 9c 7c 14 bd 3a 95 52 3c
       0.21786782 0.5136129 -0.03625165 0.012852961
0000e0 c4 c0 ad 3a 98 9b e2 bb c0 55 fd 3c f6 79 a3 b9
       0.0013256301 -0.006915521 0.030924678 -0.0003118065
0000f0 6b ae 3d 3b a2 1a 6c 3c 3c d6 ff 3b 73 db 0c 3a
       0.0028943073 0.014410647 0.007807521 0.00053732767
000100 3e 32 c9 3b 02 29 00 b9 e7 cd ab 3c 7f bd 1c 3d
       0.0061400225 -0.00012222308 0.020972205 0.038266655
000110 5c b0 82 3c e6 dc ef 3c 6c dd 04 c0 2f 43 82 3f
       0.015953235 0.029280137 -2.0760145 1.0176753
000120 92 dd 44 3f 45 10 3e 3e 5f a6 b5 be e3 21 0c c0
       0.7690059 0.18560894 -0.35478494 -2.1895683
000130 16 31 85 3f b1 9d a9 bf 4f 0e 39 3f 1a da 82 bf
       1.0405605 -1.3251249 0.7228746 -1.0222809
000140 77 d6 69 bf d7 b1 29 bf 41 27 3e bf 9a ae 7a bf
       -0.9134287 -0.6628699 -0.74278647 -0.9792267
000150 1b 5e 4a 3e 80 18 91 bf e5 60 8d 3f d4 25 06 be
       0.19762461 -1.1335602 1.1045195 -0.13100368
000160 b3 24 de be e1 28 9e bf d4 e4 d2 bc c4 7b de bd
       -0.43387374 -1.2356225 -0.02574388 -0.1086345
000170 5d 1a 2a 3d 05 df f7 3a c2 e0 25 bd eb e0 b4 3d
       0.04152905 0.001891107 -0.04049755 0.08831962
000180 49 30 7a 3d a0 d7 c4 3d 94 60 ab 3d d9 71 1f 3d
       0.061081205 0.0961144 0.0836803 0.038926933
000190 6c 82 e4 ba 2c 47 13 3d 73 e1 34 bc 8f 48 bf 3d
       -0.0017433888 0.035956547 -0.011040079 0.09340011
0001a0 5b 85 fc ba e2 d4 7a 3f 72 85 3b 3f a8 a9 d1 bd
       -0.0019265817 0.97981083 0.73250496 -0.102374375
0001b0 52 2a 06 3f d8 6a 97 be 47 0c c5 bb f7 0d 91 3c
       0.52408326 -0.29573703 -0.0060134265 0.017706854
0001c0 be 4f f5 3c 6d 60 16 bc 47 5f 9d 3c dc 04 04 3d
       0.02994525 -0.009178263 0.01921047 0.032231197
0001d0 86 5c ea 3d 16 d6 59 bc 3f 92 a7 3d e2 44 71 bd
       0.11443429 -0.013295671 0.08182191 -0.058903582
0001e0 e8 df 34 3f 2f 89 9a be 4f 47 c1 3e 05 94 e8 3e
       0.70654154 -0.30182788 0.37749717 0.4542543
0001f0 4b 26 bd be de 6a 57 3d 5c e1 4f bc 40 73 9e 3c
       -0.36943278 0.05259215 -0.012688007 0.019342065
000200 f2 62 6f 3b d9 36 99 bd c5 c8 47 bd e6 8e 0e bf
       0.0036527482 -0.074811645 -0.048775453 -0.55686796
000210 04 0f 30 3c f5 d7 55 bf 5e 10 f3 3e ac dd 31 bb
       0.0107457675 -0.8353265 0.47473425 -0.0027140183
000220 68 fc b2 3d 16 82 da bb 58 47 99 3d 2c 95 6a 3c
       0.08739549 -0.0066683395 0.07484311 0.014317792
000230 45 f3 2c 3d 03 eb f9 3b ac c0 97 3b ea 43 2a bd
       0.042224187 0.0076268925 0.0046311226 -0.041568674
000240 03 75 34 3d 63 6b c0 be e2 16 76 be 8a d4 ca be
       0.044056904 -0.3758193 -0.24032167 -0.3961528
000250 a1 d0 ba 3d ce c2 ec be e4 c0 76 bd 7f 50 26 3e
       0.09121824 -0.46242374 -0.06024255 0.16241644
000260 f2 fa 86 3d 50 33 07 3e 7c 46 e2 bd 85 56 26 3e
       0.06590833 0.13203168 -0.110486 0.16243942
000270 a3 3e d5 bc 0e ae e4 3c e4 58 13 bd a5 4d b6 bd
       -0.026030844 0.027915027 -0.035973445 -0.08901528
000280 e7 24 a8 3c 81 c8 4a 3d ce 2b 55 3d 02 e2 0d 3d
       0.020525409 0.04950762 0.05204373 0.034639366
000290 d0 45 4d 3c ae e9 8c 3b 65 50 a9 3d c0 b6 e4 3c
       0.012528852 0.0043003177 0.08267287 0.027919173
0002a0 96 4c d1 3d 18 b2 3e 3d 41 05 a3 bb e3 ff 08 3d
       0.10219686 0.046556562 -0.0049749915 0.033447158
0002b0 1e 8a a0 bb c8 09 f2 3c cb d8 18 bd e5 55 b2 bc
       -0.0048992774 0.02954568 -0.037316125 -0.021769473
0002c0 29 0b 31 3a e8 04 a7 bc 93 ee 0e 3a 08 27 75 3b
       0.0006753677 -0.020388082 0.00054524204 0.0037407298
0002d0 1c 2f a7 3d 45 fe fc 3e 4a 9c cd be 78 38 a4 be
       0.08163282 0.49412742 -0.40158302 -0.32074332
0002e0 17 8d 83 be 22 e6 cb bb a1 8e 1f 3c 06 dc cd bb
       -0.2569358 -0.0062225023 0.009738595 -0.0062823324
0002f0 23 9e a7 3c 86 e7 a0 bb bf a0 85 be 77 f3 f2 be
       0.020461148 -0.0049104122 -0.26099202 -0.47451374
000300 a4 9f 89 bf d1 e0 c1 bf 92 2f ab 3d 0b d6 dd bc
       -1.0751843 -1.5146734 0.08358683 -0.027079603
000310 6e 2a c5 3d ee ee 75 3d 46 7d 65 3e d0 c7 6e bc
       0.096272334 0.060042314 0.2241107 -0.014574006
000320 55 e0 32 3f af 0a e2 bd 35 dd d9 3e 09 58 cf be
       0.69873554 -0.11037194 0.4255158 -0.40496853
000330 90 6a c3 be 4f e3 93 3d c2 68 08 3c 65 ba 20 3d
       -0.38167238 0.0722109 0.008325757 0.03924026
000340 9e 68 c6 b9 70 9a 5c bc fe fe 07 bd e0 e0 a7 bd
       -0.0003784345 -0.013464555 -0.033202164 -0.081971884
000350 66 2a a8 bc 87 ca 2f bd 00 10 8b bc 1a 52 08 3f
       -0.02052803 -0.042917755 -0.016975403 0.5325028
000360 65 e6 9d 3f 89 01 a9 be 67 95 51 3f 1d 65 a4 be
       1.2335936 -0.33008984 0.81868595 -0.32108393
000370 84 78 8a 3c 20 fe b0 bb b7 21 ac 3a d2 c1 59 3d
       0.01690317 -0.005401388 0.0013132606 0.053163357
000380 db 8e be bd 38 7c 71 3e 68 5a a8 bd b2 75 8f 3f
       -0.09304591 0.23582542 -0.082203686 1.1207793
000390 ef 10 0a bf 9c 56 b8 3d a1 33 27 3d b8 73 bb 3c
       -0.5393209 0.090008944 0.04082072 0.022882327
0003a0 24 24 ca 39 8d 55 fe bd 1e 12 da 3d f1 8d 2c 3d
       0.0003855537 -0.12418661 0.10647987 0.042127553
0003b0 7a f6 a0 3c 91 67 1b 3e 05 03 d8 3d 02 61 7a 3d
       0.01964878 0.15176226 0.10547451 0.06112767
0003c0 e3 24 27 3d 50 d9 95 bd 76 17 79 bb b3 cf c8 bc
       0.040806662 -0.0731684 -0.0038008369 -0.024513101
0003d0 2d 0a 39 bd df e5 67 be 56 e4 97 3d 4a 04 98 bf
       -0.04517572 -0.22646283 0.074165985 -1.1876309
0003e0 e0 52 14 3f f0 ae c8 bd a9 7d 2f 3c 49 8f 99 3b
       0.5793896 -0.09798992 0.010711112 0.0046862704
0003f0 f2 29 4b 3c da 33 24 3c 8c 22 0b bc bc d8 42 3d
       0.012400137 0.010022128 -0.008492123 0.047569975

net.0.bias f4 [128]
000000 05 02 bf 3e 9e e9 ef be dc ad 36 3f 11 d2 84 3e
       0.37306228 -0.46857923 0.7135904 0.25941518
000010 96 32 20 be 51 73 50 bf 9b 14 2e be 8e 82 f3 be
       -0.15644297 -0.8142596 -0.17000048 -0.47560543
000020 57 aa 9c bf 02 42 49 3f bd 04 41 be 85 0e 0c be
       -1.2239484 0.78616345 -0.18849464 -0.13677414
000030 66 47 7f bd 8c 07 6e be e8 5b 25 bf 60 cb 37 c0
       -0.06232395 -0.23245066 -0.6459336 -2.871788
000040 f9 96 30 bf ee c7 1c c0 26 48 e9 be b8 ae e8 be
       -0.68980366 -2.4497027 -0.45562857 -0.454458
000050 24 08 ba be f8 fb c9 bf 59 a7 a1 be c8 93 e7 be
       -0.36334336 -1.578002 -0.3157299 -0.45229936
000060 81 33 62 bf 8b 33 86 be 35 0a db 3e f9 aa de be
       -0.8835984 -0.262112 0.42781225 -0.43489817
000070 5f 59 ae be 7f e6 35 bf 89 7e 31 bf ad 69 31 bf
       -0.3405256 -0.71054834 -0.693337 -0.69301873
000080 01 19 a2 be 04 3a b0 be 99 8d 3c be 22 a4 4a be
       -0.316597 -0.34419262 -0.1841339 -0.19789174
000090 aa 87 84 bf 7e a2 31 be 9f f4 2a bf 55 ab 50 3e
       -1.0353901 -0.17347142 -0.6677951 0.20377858
0000a0 e1 8b b1 bf 09 22 89 be d7 46 97 be cc 40 a4 be
       -1.3870813 -0.2678378 -0.29546234 -0.32080686
0000b0 b1 07 b3 be 01 ad a7 3d 08 ca 2f bf ed 98 32 bf
       -0.34966806 0.08187295 -0.6866765 -0.69764596
0000c0 77 59 a9 be 2e 9f bc bd c8 b5 a1 bd 0f b8 a6 be
       -0.3307607 -0.092100486 -0.07896 -0.325623
0000d0 78 76 40 bf 03 04 73 bf 8a 81 14 bf 42 4e 1f bf
       -0.7518077 -0.94927996 -0.5801016 -0.62228787
0000e0 12 b5 95 3e 1a 85 f6 be a3 3f 25 bf a9 d8 c4 be
       0.29239708 -0.48148423 -0.64550227 -0.3844655
0000f0 16 0c b3 3f 26 e3 aa be 75 58 07 bf da d0 93 bf
       1.3988063 -0.33376426 -0.5286935 -1.1548111
000100 92 5f 00 be 69 4f 1d be dd 77 07 bf 02 1b c7 be
       -0.12536457 -0.15362324 -0.5291727 -0.38887793
000110 3e 8a 68 bf 76 49 6e be f9 1d 77 be 04 4b 13 bf
       -0.9083594 -0.2327021 -0.24132527 -0.5753634
000120 9f 87 14 bf 6e 38 85 be 2e d5 31 be a6 76 15 3f
       -0.5801944 -0.26019615 -0.17366478 0.5838417
000130 e3 f4 49 bf 9a e2 99 be 82 7c bb bf 45 c9 6e 3e
       -0.7888929 -0.30055696 -1.4647372 0.23318966
000140 68 85 a8 be 8f 5c 24 be 1e 26 e9 bd 17 13 9b be
       -0.3291428 -0.16050933 -0.113842234 -0.30288002
000150 13 48 57 3d fe db 61 be e2 43 2b bf af db 8b bf
       0.05255897 -0.22056577 -0.66900456 -1.0926417
000160 c0 f1 c0 bf d6 47 6c be d4 67 ae be da 3a cc bd
       -1.5073776 -0.23074278 -0.3406359 -0.099721625
000170 fa b1 b4 be 01 c3 af bd 3a 28 d3 be bd 0c a0 bf
       -0.35292035 -0.08582116 -0.41241628 -1.2503887
000180 8e a4 88 3e 3c 0d a0 be 66 f8 81 be ab 01 43 be
       0.26688045 -0.31260097 -0.25384825 -0.19043605
000190 90 c3 d3 be 48 8f 5b be 32 b7 0b be ae 8b 72 bf
       -0.4136014 -0.21441376 -0.13644102 -0.94744384
0001a0 94 30 3d bf a0 32 20 bb 22 16 5b be 4b 0f 80 be
       -0.7390225 -0.0024444237 -0.21395162 -0.25011668
0001b0 7b aa ba bd 49 43 ba bf 83 84 ca bf fb 1e 17 bf
       -0.09114548 -1.4551784 -1.5821689 -0.5903165
0001c0 2d 59 89 be 1d 58 fd be 2d 8d 86 bf 3d 77 4e bf
       -0.26825848 -0.49481288 -1.0511833 -0.80650693
0001d0 bc f8 07 bf 1c 64 1b bf ad a6 0c bf 0a 67 e0 be
       -0.53113914 -0.6069963 -0.5494183 -0.43828613
0001e0 95 45 57 bf ee 13 e5 be 37 01 e0 be 0c 64 a9 be
       -0.8409055 -0.44741768 -0.43750927 -0.33084142
0001f0 28 ba 0f bf c0 81 ad bf 62 6b ad bf f9 ec ae be
       -0.56143427 -1.3555222 -1.3548396 -0.3416517

net.2.weight f4 [128, 128]
000000 37 1c de bd 91 1b 10 bd 2e 0b 82 bc 34 f5 12 3d
       -0.10845225 -0.03518254 -0.015874472 0.035878375
000010 77 dd 9f bd 7c 8d 39 bb 60 33 cc 3c bf eb 08 3d
       -0.07805913 -0.002831309 0.024926841 0.03342795
000020 d6 ec 1c bc 39 4e 8e bd 49 63 b3 3c 7c 38 4e bd
       -0.00957795 -0.069485135 0.021897929 -0.050346836
000030 27 df 31 3c 26 24 6f bd 3b e1 07 bd bc b4 be 3c
       0.010856426 -0.058384083 -0.03317378 0.02327954
000040 86 79 31 bd 25 cd ab bd 5f fa f8 bc d2 47 69 3c
       -0.043328784 -0.083887376 -0.030392824 0.014238315
000050 07 6e 93 bd ee 9a 7f bc 81 99 8d bc 67 d7 90 3d
       -0.071987204 -0.015600903 -0.01728511 0.07072335
000060 c2 d4 89 bd 9f 03 27 bd c8 d3 8b bd b3 94 be bc
       -0.067300335 -0.040774938 -0.068275034 -0.023264265
000070 98 49 8e bd 1c 74 b1 bd 1e 20 60 bc 7f 83 14 bd
       -0.06947631 -0.08664724 -0.013679532 -0.036258217
000080 b9 88 1c bd b6 cb 87 bd 30 1a f8 bc 24 97 d9 bb
       -0.038216326 -0.06630652 -0.030285925 -0.006640332
000090 14 49 4e bd 7e 90 c4 3c 5b 24 16 3d 88 b1 3a bd
       -0.05036266 0.02399468 0.036655765 -0.045579463
0000a0 63 2e 06 bd 72 26 59 3c 5c 1a b0 bd 63 07 fc 3c
       -0.03275908 0.013253795 -0.08598778 0.030765241
0000b0 4c 45 fa bc e4 6f 88 bd 23 81 83 bd 95 b6 12 bd
       -0.030550621 -0.066619664 -0.06421115 -0.035818655
0000c0 b3 5c ac ba f6 c7 2c bd b0 79 4b bd f6 96 2b 3d
       -0.0013150185 -0.042182885 -0.049676597 0.041892014
0000d0 72 ff 95 bd 4a 16 25 3d ec b9 46 3d 80 2b d2 bb
       -0.07324113 0.04030446 0.048517153 -0.006413877
0000e0 d6 9c ae bc 50 ab fd 3c ba 2a a4 bc 9c 5e 48 bd
       -0.02131502 0.030965477 -0.020039905 -0.04891835
0000f0 a1 af 9e bd ea 4d b1 bc 04 42 e3 3c e3 3f 82 3c
       -0.07748342 -0.021643598 0.02774144 0.015899604
000100 f3 be a9 bd a8 fd 76 bc e9 0b 99 bc 64 79 04 3d
       -0.08288374 -0.015075125 -0.018682437 0.03234233
000110 be 14 d8 bc 96 e0 7f bd 75 d6 0c ba c1 3a 04 3d
       -0.026377078 -0.06247004 -0.0005372533 0.032282595
000120 c9 d6 02 bc 0d ba 3b bd 42 08 ba bb 27 3e 61 bb
       -0.007985779 -0.04583173 -0.005677254 -0.003436932
000130 15 2a 77 bd 53 e8 fd bc 75 96 9a 37 d4 72 46 bd
       -0.060342867 -0.03099457 1.8428293e-05 -0.048449352
000140 b9 9a 33 3c c6 93 8b 3c 3c 59 1f bc 19 4e 1c bd
       0.010962182 0.017038237 -0.009725865 -0.038160417
000150 f1 ab a3 bd b6 95 dd 3c e9 f7 91 bd 9e c4 20 bd
       -0.079917796 0.027048927 -0.07127363 -0.03925001
000160 ab f2 a3 bd f2 ef a8 bd 5c 5f 60 bd 9d 52 7c 3d
       -0.080052696 -0.08248891 -0.05477844 0.061602224
000170 78 bb d7 3a 3f 19 9a bd 0f e6 1b bd c4 f9 33 bd
       0.0016459068 -0.075243466 -0.038061198 -0.043939367
000180 32 23 83 bc 41 e4 b5 bd 2d 9e 28 bd f6 9b 95 bc
       -0.016007993 -0.088814266 -0.041166473 -0.018262845
000190 8f 55 8d bd a7 a3 12 bd f2 21 80 bd 6a c1 fa bc
       -0.06901085 -0.035800602 -0.062564746 -0.030609805
0001a0 fa 37 28 bc 8b 28 92 bd 88 b5 60 bd f4 94 b2 bd
       -0.010267252 -0.07136639 -0.05486062 -0.08719817
0001b0 23 07 24 bc 38 68 ae bd ae b8 f0 bc ce c1 ae bd
       -0.010011467 -0.08515972 -0.029384937 -0.08533059
0001c0 3a b0 75 bd 16 f7 b4 bc 4e fc 1c bd 76 e8 c3 3a
       -0.059982516 -0.022090476 -0.038326554 0.0014946598
0001d0 c2 69 ec bc e9 f3 a4 bc 51 88 1c 3d 7a 37 ee ba
       -0.028859023 -0.020135837 0.03821594 -0.0018174492
0001e0 68 2c 35 bd 69 1f a5 bc d6 a1 6b bd c2 d8 83 3c
       -0.044231802 -0.02015658 -0.057527386 0.01609457
0001f0 e0 fb 53 3c d4 ac a0 bd ac 99 fa 3c 16 f9 4e 3a
       0.01293847 -0.07845464 0.030590855 0.0007895393
000200 55 ba a6 bc 59 ba 2d bd d7 e0 b4 bc 4a 36 95 bd
       -0.020352522 -0.042414043 -0.022079868 -0.072857454
000210 90 58 4d ba 02 b4 27 be 22 11 02 3c 60 2b 1e be
       -0.0007833326 -0.16377261 0.007938655 -0.15446234
000220 da 52 d8 bd 9a d6 f0 bb 6c 19 2f be 68 a7 e5 bc
       -0.10562678 -0.0073498012 -0.17099541 -0.028033927
000230 27 aa fc bb 99 9b 10 3b d0 b0 75 be 73 47 8c be
       -0.0077107134 0.00220654 -0.2399323 -0.2739826
000240 d1 e9 94 bc de 47 a0 be 96 21 7f 3d 75 19 25 be
       -0.018177899 -0.3130483 0.06228789 -0.16122992
000250 3e 25 2a bd ba 5e 11 3e 8a 9b 70 3a 6b c5 77 bd
       -0.041539423 0.14196292 0.00091784506 -0.060491007
000260 15 a8 2e bd c5 2e 0f 3e e2 0e 63 be c3 91 8d 3d
       -0.042640764 0.13982685 -0.22173646 0.069125675
000270 1a ac 5a bd e4 25 bc bd 98 76 e7 3d 10 8a 98 3d
       -0.053386785 -0.091869146 0.11301917 0.07448208
000280 b4 0e 29 3d 56 de 6f bc 0a 53 87 bc 05 07 1a bd
       0.041273788 -0.014640411 -0.016519088 -0.03760435
000290 09 a3 bd bd a0 6c e3 bd 3e d5 f9 bd 6c 47 3c 3c
       -0.09259612 -0.11104703 -0.12198876 0.011491638
0002a0 29 ab 9e 3d 84 29 d4 bd e2 d2 c3 bb c0 d1 8f bd
       0.0774749 -0.10359481 -0.005976067 -0.070224285
0002b0 07 13 aa 3d 0d 60 15 3c a2 a5 71 bc 16 ce d5 bd
       0.083044104 0.009117139 -0.014748963 -0.104396984
0002c0 4b 67 31 be a3 20 1f 3d de 11 3c 3d 0e e1 ff 3d
       -0.1732456 0.038849484 0.045915477 0.12494098
0002d0 19 13 0a 3d 77 01 08 bd 69 4a ad 3d 24 ca a2 3d
       0.03370962 -0.033204522 0.08461458 0.079487115
0002e0 6c d0 f7 bd ac 10 a6 3d dd 5c af be 7c 79 c8 3d
       -0.121003 0.08108649 -0.34250537 0.09788796
0002f0 80 d8 9c 3c f6 7c 9e be 97 a7 53 be 70 a3 d2 3d
       0.019146204 -0.30954713 -0.20669399 0.102850795
000300 34 22 f5 bd 38 45 5f bd b2 ed 88 bd 0c 96 6f be
       -0.11969414 -0.05450937 -0.06685962 -0.23397082
000310 dd 65 a9 3d ac 35 76 3c bc 48 23 bb 63 f2 8a bd
       0.08271382 0.015027445 -0.002491518 -0.06784513
000320 cb be a5 bd 76 0a 21 3d f4 ab ce 3d 10 c5 96 bd
       -0.080930315 0.039316617 0.10091391 -0.073618054
000330 d0 55 e3 bd e2 5b 0c 3e 8f ef a3 3d ce b9 f8 bc
       -0.11100352 0.13706926 0.080046766 -0.030362036
000340 63 a0 29 bd 18 7f bd bd 0a 7c 44 3d d0 44 ec bd
       -0.041412722 -0.09252757 0.047969855 -0.115365624
000350 cc 43 2b be 65 bb 94 3d 83 44 85 3c 61 fc 82 be
       -0.16725081 0.07262305 0.01626802 -0.25583175
000360 84 00 df bd 4c 9e 9c bd 3b 09 b1 3d 91 10 87 3d
       -0.1088877 -0.0764738 0.08644339 0.06594957
000370 78 47 ae bd 97 b9 ce 3d 25 01 a5 3d 4e e2 40 3e
       -0.08509725 0.10093992 0.08056859 0.18836328
000380 b2 ea 8b 3c 95 b5 07 be bd 8c 3d 3d 0a 2e d1 3c
       0.017079685 -0.13252862 0.046276797 0.025534648
000390 a3 0f b8 bb 2a 6d 8c 3c c2 5a 65 3d ed e1 b0 3e
       -0.0056170984 0.017141897 0.055994757 0.34547368
0003a0 0e c7 b9 bd 95 3c e2 bc cf 1d 90 3d b5 64 84 3c
       -0.0907117 -0.027616778 0.070369355 0.016161302
0003b0 1f 90 a1 bd ba e9 8d be e9 84 c5 3d 34 c9 27 be
       -0.07888817 -0.27717382 0.09644491 -0.16385347
0003c0 53 01 01 be cb 76 2e 3d 1e 78 17 be ab b6 ff bd
       -0.12598161 0.04259376 -0.14791915 -0.12486013
0003d0 cf fa 98 bd 07 f7 15 3e fa 6a a9 3c f4 e3 19 be
       -0.07469713 0.14645015 0.020680893 -0.15028363
0003e0 28 ff d9 bd 88 26 00 3e f5 45 f6 3d 40 9a d7 3d
       -0.1064437 0.12514699 0.12025062 0.10527468
0003f0 fc a9 68 3d e4 95 46 be 94 27 13 be 60 ce 1b be
       0.056802735 -0.19393116 -0.14370567 -0.15215445

net.2.bias f4 [128]
000000 66 9c 1c bd be c5 3c be d0 91 61 be 86 b8 9a 3f
       -0.03823509 -0.18434808 -0.2202828 1.2087562
000010 cd 6a 01 3f 92 4d ea bd 6a ab 29 be b1 d5 31 be
       0.5055359 -0.114405766 -0.16569296 -0.17366673
000020 6c 97 c5 3e 74 74 0d be 73 8e 1b be 69 20 06 be
       0.38592088 -0.13813955 -0.15191059 -0.13098301
000030 12 53 2c bd cd 3e f0 3e c4 78 83 b9 69 a1 49 be
       -0.04207141 0.46922913 -0.00025076244 -0.1969048
000040 70 72 a5 bd fe 69 09 bd 6e 43 2f be 03 48 8f 3f
       -0.08078468 -0.033548348 -0.17115566 1.1193851
000050 44 a6 4b 3d af b9 db bf 8e cf 14 be 24 69 ac 3e
       0.04971911 -1.7166041 -0.14532301 0.33673966
000060 c5 64 39 bd 41 9c 8b 3c e4 d2 03 be 7b 4c 7b bd
       -0.045262117 0.017042281 -0.12873417 -0.061352234
000070 31 51 8d bd 62 c2 0c bd 10 21 11 be 4e 78 f4 bd
       -0.06900252 -0.034365065 -0.14172769 -0.11937009
000080 2f 07 5e 3f 70 ed e2 bd 53 77 47 3f 08 ed eb bb
       0.8672971 -0.11080444 0.7791645 -0.007199887
000090 48 b4 a3 3e 12 d4 f4 bd 58 c5 d3 be 0d c2 23 be
       0.3197348 -0.11954512 -0.413615 -0.15991993
0000a0 26 07 31 be 52 3b dd 3b ce b0 85 bd d0 bb 83 3f
       -0.17287883 0.0067514563 -0.065278634 1.0291691
0000b0 2e 1e 2b be 9c af 75 3c ca 84 6a bd cb aa a1 bb
       -0.16710731 0.014995482 -0.057255544 -0.00493369
0000c0 d2 ef 18 bf d2 c9 3e bd 73 e7 35 bb fb c9 03 be
       -0.59740937 -0.04657919 -0.0027756363 -0.12870018
0000d0 48 ce d9 bd 48 88 38 bc da 47 fb be 77 75 1a 3f
       -0.10635048 -0.011262961 -0.49078256 0.6033549
0000e0 06 f6 b9 3e de 32 f5 bd ad 29 2c be 48 d2 7e 3c
       0.36320513 -0.11972593 -0.16812773 0.015553065
0000f0 0e 0a 5a bf da b0 a2 bd df f9 99 bd a1 5a cc bd
       -0.8517159 -0.07943888 -0.07518362 -0.099782236
000100 2d a2 7e bd 84 1b 96 be db 47 37 3f 14 d9 65 bd
       -0.06216638 -0.29317868 0.7159402 -0.056115225
000110 80 33 68 be 8d 5b c0 3e aa 02 a7 bd 0d 4c 23 bd
       -0.22675896 0.37569848 -0.08154805 -0.03986745
000120 be db 25 bd 17 f9 ba be 2c e1 64 be c3 fd 17 be
       -0.040492766 -0.36518165 -0.22351521 -0.14842896
000130 1f c9 73 be 8a 8f e1 bd ac 3a 94 bd 1e 15 ef bd
       -0.2380719 -0.11013706 -0.07237753 -0.1167395
000140 4e 75 1f bd bc 9d bd be fd 40 83 be 49 df b9 bd
       -0.03893023 -0.37034404 -0.2563552 -0.090757914
000150 50 6b a0 be c0 ff 18 be 2f 28 01 3b f5 4f ec 3d
       -0.31331873 -0.14941311 0.001970779 0.11538688
000160 89 18 92 3e 6a f6 1e be 72 b9 af bc 31 c5 88 be
       0.28534344 -0.15523687 -0.021450732 -0.26712945
000170 d9 1b 31 be 94 db 1c be 9d 39 44 be 93 1a 2a bd
       -0.1729578 -0.15318137 -0.19162603 -0.04152925
000180 d1 57 b9 bd d6 20 af bd 1b d2 1a bd 38 d8 1c bf
       -0.09049953 -0.08551185 -0.03779803 -0.61267424
000190 2e 43 10 be 1c 6e ec be c8 b9 f1 bd 84 2b 9d bd
       -0.14088127 -0.46177757 -0.11803013 -0.076743156
0001a0 b7 9a 40 be 1a 4e 5e bc 58 14 fc bc 01 d5 80 bd
       -0.18809019 -0.013568426 -0.03077142 -0.06290627
0001b0 0e f1 71 bd 7c 2a d8 3b 0d a7 fb be 22 8e 86 3c
       -0.05906778 0.0065968614 -0.49150887 0.016425196
0001c0 8d 3a d9 3e ff 05 9f be e0 83 f8 bd b7 9c 79 be
       0.42427483 -0.31059262 -0.12134528 -0.24376188
0001d0 53 39 d4 3e aa 82 0a be 43 41 44 bf 39 35 07 bd
       0.41449985 -0.13526407 -0.7666208 -0.03300974
0001e0 23 1e 8f be e7 a7 be bd 11 ff 90 3d aa 31 98 3f
       -0.2795268 -0.093093686 0.070799 1.1890156
0001f0 40 11 4e bd 00 03 ce bd 4e ab a0 bd 8a 1c 28 3f
       -0.05030942 -0.10059166 -0.07845174 0.6566855

net.4.weight f4 [5, 128]
000000 54 94 48 bc 72 44 2b 3b de ee a1 bd a7 8a 81 3b
       -0.012242395 0.0026133326 -0.079068884 0.003953296
000010 4b 09 fe 3b d8 b9 e4 3a d3 64 8d bd 74 74 2b bd
       0.0077525727 0.0017450405 -0.06903996 -0.041859105
000020 df 18 b7 3b 5b d2 16 bd 3a f0 5e 3d 8c 22 16 3b
       0.0055876817 -0.036821704 0.054428317 0.0022908775
000030 95 bf 9c 3c 2c e7 ac 3a 33 96 9f ba 97 13 1a bd
       0.019134322 0.0013191453 -0.00121755 -0.03761634
000040 28 d4 88 3c e1 60 4e bb 01 71 ad 3d 0b fc 86 bb
       0.016702726 -0.003149085 0.084688194 -0.0041194013
000050 c7 7a 1f bb 30 e8 94 b9 60 19 14 3d bc 9b f3 3a
       -0.0024334656 -0.00028401753 0.036157012 0.0018585841
000060 b7 4f 4b 3b 2f 93 60 bd b6 96 10 3d 93 ca b3 bc
       0.0031022856 -0.054827865 0.03529998 -0.02194718
000070 ff 4a c1 3d 5e aa 37 bd ed e9 ba be 66 73 19 bd
       0.094381325 -0.04484021 -0.36506596 -0.03746357
000080 5b f9 8a ba 5c c5 02 3d 15 dd 1e 3a cc d2 b3 3c
       -0.0010602878 0.031926498 0.00060601655 0.021951102
000090 fc 2a 5c 3b 2c cb 9f bc f5 2d 32 3a 4e 08 39 3d
       0.0033594957 -0.01950606 0.0006797009 0.045173936
0000a0 56 82 6c 3d e3 84 8e 3c e5 54 04 3c 2d cc c1 bb
       0.057741486 0.01739735 0.008076881 -0.005914232
0000b0 09 b3 a3 3d d6 27 85 bc c4 d1 89 3c 94 1d c6 3c
       0.079931326 -0.016254347 0.016823657 0.024184026
0000c0 44 d4 19 3f 43 44 21 3d 81 0c a1 39 f3 5a 07 3d
       0.60089517 0.03937174 0.0003071763 0.03304572
0000d0 07 78 26 3c 5a 7c d2 3b 84 88 29 3c bf 8c 0a ba
       0.010160453 0.0064235153 0.010347489 -0.0005285255
0000e0 2f bd a6 3c b0 6b 2e bc 14 89 a3 3c 90 30 12 bd
       0.020353882 -0.010645792 0.019962825 -0.035690844
0000f0 3b 1a 6a 3a 94 e8 21 3d a3 dc 4d bb 77 8a a0 3b
       0.00089303 0.039528444 -0.0031412027 0.004899319
000100 a6 88 6b bc d9 92 d3 bc 66 ed 87 bd 33 9c 99 3c
       -0.014375841 -0.025826858 -0.06637077 0.01875124
000110 02 30 e5 bd 14 da fa ba 8a 8e cb bd 9a 3a 2b bd
       -0.111907974 -0.0019138479 -0.099392965 -0.041803934
000120 3b 1d 7f bc aa fe 9f 3a e3 fc 7a bc 54 21 5d 3b
       -0.015570934 0.0012206633 -0.015319082 0.003374179
000130 e9 fd 24 3d b7 4e be 3a f0 d3 e8 3c 28 40 3e 3d
       0.04028121 0.0014519308 0.028421372 0.046447903
000140 c9 a8 13 3e 97 5d 8f 3b 9b 4f ff bd b6 86 c5 3c
       0.14419855 0.0043751705 -0.124663554 0.024112087
000150 46 f3 f5 3c 44 3e d5 3c 44 64 4b bd fb a7 8f 3c
       0.030023228 0.026030667 -0.049656168 0.017536154
000160 9d 64 9d 3b e0 f8 13 3d 57 2e 92 bd 0b b9 97 bd
       0.004803254 0.036126018 -0.07137745 -0.07408341
000170 01 30 a3 bc 97 b1 18 bc 16 33 ca bc 42 3d 7e 3c
       -0.019920351 -0.0093196845 -0.024682563 0.015517535
000180 38 b2 ec 3b 2a 9d d8 bb 82 82 82 bc d8 27 f1 3c
       0.007223394 -0.0066105323 -0.015931372 0.029437944
000190 66 2b 15 bd 1e a8 b8 bb f8 ec 97 bc 72 86 cb bc
       -0.03641834 -0.0056352755 -0.018545613 -0.024844382
0001a0 fd 8d a0 bd 8e 8c 63 3d e0 43 90 3c 8a f2 81 bc
       -0.07839582 0.055553965 0.01761049 -0.015862722
0001b0 28 c5 77 3d c9 ff a3 bb 01 22 c7 bd 62 53 4b 39
       0.060490757 -0.005004857 -0.097232826 0.00019390651
0001c0 55 b3 ec ba 29 b1 25 be ff 56 ba 3d eb a2 de bd
       -0.0018058816 -0.16180862 0.090986244 -0.10870918
0001d0 03 8e b3 b9 5d cd 84 bd 15 83 24 ba ac 88 96 bd
       -0.00034247348 -0.064844824 -0.0006275636 -0.07350287
0001e0 d7 51 9c 3e c8 de 17 3e 68 b7 b9 be 1c 29 37 bb
       0.3053119 0.14831078 -0.3627274 -0.0027948087
0001f0 4e 84 1e bc 11 e0 11 be c2 fa 2f ba 96 43 b3 3a
       -0.009675099 -0.14245631 -0.0006713086 0.0013676758
000200 91 16 bf bc 5b 51 fa bc 64 57 ab 3d a1 59 f8 ba
       -0.02332619 -0.030556371 0.08366278 -0.001894761
000210 c6 0b c7 ba 5f 47 f4 3c 7a 76 cf bb 62 72 49 bb
       -0.0015186004 0.029819189 -0.006331262 -0.0030738343
000220 f8 d5 86 39 f6 1f 69 bd 03 98 34 3d b0 2f 3a 3b
       0.0002571789 -0.056915246 0.044090282 0.0028409772
000230 62 16 e0 3c 61 ef 20 3b b9 33 8c 3d c2 e8 03 bd
       0.027354423 0.0024556743 0.06845803 -0.032204397
000240 3e 67 28 bc d0 f3 c5 b7 c8 7e 64 3c 21 14 e4 ba
       -0.010278521 -2.3597764e-05 0.013946243 -0.0017401018
000250 5b 35 30 3c 39 0b ca b9 b3 d1 f6 3a 51 78 19 3c
       0.010754908 -0.00038536804 0.0018830806 0.009367065
000260 4b 9b 9e 3b ff 19 d0 be ff 82 21 bc ac ca 48 3c
       0.0048402897 -0.40644833 -0.009857892 0.012255352
000270 52 fa f0 bc 0a 30 44 3b 28 9c ae 3e 30 af 70 3d
       -0.029416237 0.002993586 0.34103513 0.05876082
000280 ad 08 6c b9 41 9a db 3c 47 9e 66 bb 13 2f a8 ba
       -0.00022509946 0.026806952 -0.0035189555 -0.0012831412
000290 a4 af ea 3a a9 9d 0e bd ad 1f a9 39 77 d3 0d bd
       0.0017905128 -0.034818325 0.00032257792 -0.034625497
0002a0 f8 47 c2 bd a0 ab 97 3c 30 3e 83 3b b6 2e 0a 3b
       -0.09486383 0.018514454 0.004005216 0.002108497
0002b0 dd 81 a9 bc c2 23 2a 3d de d2 3f bd de aa 94 3a
       -0.020691806 0.041538008 -0.046831958 0.0011342426
0002c0 3a 33 84 be 14 de d9 bc ca f0 e2 3c 70 62 9e 3c
       -0.25820333 -0.026595153 0.027702708 0.019334048
0002d0 54 5a 82 bc b6 38 84 3d 9e 49 a5 3b 44 c0 7e bb
       -0.015912212 0.06456129 0.0050441762 -0.0038871923
0002e0 25 eb 09 bd 6a 99 98 3c ca 5e ad bd 8e 33 f8 b9
       -0.033671517 0.018627841 -0.08465345 -0.00047340657
0002f0 e4 a0 73 3a 29 a5 ac 3b b6 a5 0a 3b b6 5a 5d 3c
       0.0009293689 0.005268712 0.00211559 0.013510397
000300 26 37 72 bd a9 08 9b bc 27 b0 8b bd 48 5c e5 3c
       -0.059134625 -0.018925028 -0.06820708 0.027998105
000310 ae 56 e2 3d 07 7d ab 39 f3 3b c3 3c 7a c1 5f bd
       0.11051689 0.00032708814 0.023832297 -0.054627873
000320 cb 45 97 bd ce 82 6e 3a c8 1e d8 bb 97 09 07 bd
       -0.07386359 0.0009098471 -0.0065954663 -0.03296813
000330 0a 73 75 3d 89 e0 45 bc 4d b0 f9 3c 10 4e df 3d
       0.059924163 -0.012077459 0.030479575 0.10903561
000340 53 cb 01 3f 8d 32 80 3c 07 8a 05 be b2 bb d7 bc
       0.50700873 0.015649104 -0.13040935 -0.026334617
000350 b8 b6 23 3d cf e9 34 bd d2 db 43 bd 65 42 55 3c
       0.039969176 -0.04416829 -0.04781706 0.013016318
000360 76 5b e9 3b ff 53 82 bc 27 01 94 bd 85 31 a5 3c
       0.0071214987 -0.015909193 -0.07226782 0.020165214
000370 05 77 08 3d cd 7b c2 bc 84 8c 03 3d 19 16 06 3c
       0.03331663 -0.023740673 0.032116428 0.008183979
000380 10 49 3a bd 2f bd ba 3b ed c1 41 3d c4 bd c4 3c
       -0.045479834 0.005698822 0.047304083 0.024016269
000390 87 c6 c1 bd 57 f2 ab 3b fd f2 94 bc d8 b0 07 3c
       -0.09461694 0.005247395 -0.018182272 0.008281909
0003a0 a9 3c 05 3c 4f 03 12 3d 2e f0 1f bd 25 8c 7f bc
       0.008132138 0.035647687 -0.039047413 -0.015597378
0003b0 8c ed 71 bd 11 e3 65 3d 6e f5 84 bd f3 53 6c 3b
       -0.059064433 0.05612475 -0.064921245 0.003606078
0003c0 86 91 21 bc 66 4f 24 3e 4a be 80 bd b8 6b d5 3c
       -0.009861356 0.16045913 -0.06286295 0.02605234
0003d0 4d e5 bf 3a ad 53 20 3d d3 df 9c 38 02 e0 ba 3d
       0.001464048 0.0391423 7.48035e-05 0.09124757
0003e0 fd 14 60 3d a6 ca 61 bd 55 8c c2 3d ac 02 e4 ba
       0.054707516 -0.0551249 0.094994225 -0.0017395816
0003f0 21 8e a5 3b 47 6b 9d 3d 28 a2 15 bb 9a f2 18 3a
       0.0050523435 0.07686477 -0.0022832248 0.00058344903

net.4.bias f4 [5]
000000 63 02 a2 3e 67 db 77 bb dc d7 d5 bd 25 6d 96 be
       0.31642446 -0.0037819983 -0.104415625 -0.29380146
000010 97 74 d7 bf
       -1.6832455
