models/nextstep_h128_lr1e-3_best.pt (torch, 811877 bytes, 10 tensors)

lstm.weight_ih_l0 f4 [512, 5]
0	0xbea25330	-0.31704092
1	0x3e7a7f28	0.24462569
2	0xbed090ca	-0.40735465
3	0xbed69296	-0.4190871
4	0x3ee7798c	0.4520992
5	0x3e2cc173	0.1687067
6	0x3e2b3567	0.1671959
7	0xbd9442d6	-0.072393104
8	0x3e67cc3b	0.22636501
9	0x3e8554e5	0.26041332
10	0x3e0fa23e	0.14026734
11	0xbe51c78a	-0.20486274
12	0xbb1bce6e	-0.0023774165
13	0x3d0c94bc	0.03432153
14	0x3e55067c	0.20803255
15	0xbded70f2	-0.11593808
16	0xbe2ad301	-0.16682054
17	0x3e246c7f	0.16057013
18	0xbe761916	-0.24033007
19	0x3e06ed2b	0.1317641
20	0xbdc7f958	-0.097643554
21	0xbb915a6c	-0.004435828
22	0x3b174252	0.0023080301
23	0xbc47e04b	-0.012199472
24	0x3d66ef14	0.056380346
25	0x3e1e7e82	0.15477946
26	0x3bb58ad7	0.0055402326
27	0xbe0f0a3c	-0.13968748
28	0xbdabd112	-0.08389486
29	0x3e113cab	0.14183299
30	0xbec485b1	-0.38383248
31	0xbd755dec	-0.059904024
32	0xbdc03ab2	-0.09386195
33	0x3d34fd15	0.04418667
34	0xbe3275b3	-0.17427711
35	0x3eb176fd	0.34661093
36	0xbe5dd4f9	-0.21663274
37	0x3e06bd3f	0.13158129
38	0x3d43bc41	0.047786955
39	0x3cf8aead	0.03035673
40	0x3df85618	0.12125796
41	0x3e034027	0.12817441
42	0x3d7b06fe	0.061285965
43	0x3e7a4824	0.24441582
44	0x3e625b4d	0.22105141
45	0x3e1702ab	0.14747111
46	0x3d832b01	0.06404687
47	0xbd8eff77	-0.0698232
48	0xbd92733f	-0.07150888
49	0x3da1db72	0.07903184
50	0xbe314857	-0.17312752
51	0xbeb9f17c	-0.3631705
52	0x3f29c197	0.6631102
53	0x3e81d0a2	0.25354487
54	0x3d85644a	0.06513269
55	0xbf44d116	-0.7688154
56	0x3f2bd750	0.67125416
57	0xbeb95515	-0.36197725
58	0x3f15efee	0.5856923
59	0xbc82594f	-0.015911726
60	0x3f493bdf	0.7860698
61	0x3eefa728	0.46807218
62	0x3c9b1a96	0.018933576
63	0x3e69d4fc	0.22835153
64	0xbca7bcfb	-0.020475855
65	0xbd3ff933	-0.046868514
66	0x3db44875	0.088028826
67	0x3e441306	0.19147882
68	0xbd51b9bc	-0.05120252
69	0x3ceea6f1	0.029132338
70	0x3dd7098a	0.10499866
71	0x3bc7214d	0.006076968
72	0xbe7dbfad	-0.2478015
73	0xbd3e32ba	-0.046435095
74	0x3dd7de8f	0.105404966
75	0xbd986946	-0.07441954
76	0xbe22c3ef	-0.15895055
77	0x3ca82d24	0.020529337
78	0x3e469576	0.19392952
79	0x3e1f5690	0.15560365
80	0xbd4dd37d	-0.05025052
81	0x3ed274e7	0.41104814
82	0x3b3e0ade	0.0028998177
83	0xbeac44d5	-0.33646265
84	0x3d503bd8	0.05083832
85	0x3c7ec792	0.015550511
86	0xbcd664c6	-0.0261711
87	0x3c6a4fbe	0.014301239
88	0x3e0e354d	0.1388752
89	0x3d9a98b4	0.07548657
90	0x3bba33cb	0.0056824437
91	0xbe0d13c5	-0.13777073
92	0x3e467ba7	0.19383107
93	0xbe039860	-0.12851095
94	0x3ddeb9bf	0.10875272
95	0xbe9668ff	-0.2937698
96	0x3de5e8bc	0.11226031
97	0xbdf8be30	-0.121456504
98	0x3bdd299c	0.006749345
99	0x3e4124c1	0.18861677
100	0x3e561156	0.2090505
101	0xbd4e1390	-0.050311625
102	0xbd9dba69	-0.077015705
103	0x3d2b7dfb	0.04186819
104	0x3e9789f9	0.29597452
105	0x3f135126	0.575457
106	0xbf32511f	-0.6965503
107	0x3d562662	0.0522827
108	0xbee8ce85	-0.45470062
109	0x3eb9a901	0.36261752
110	0xbdbc0f1e	-0.09182571
111	0xbcb734e1	-0.022364082
112	0xbd85f38e	-0.06540595
113	0xbdefddd9	-0.11712236
114	0x3ca2db9c	0.019880109
115	0x3eb01575	0.3439137
116	0x3e9dba24	0.30806077
117	0x3eebda89	0.46065167
118	0xbe3db584	-0.18526274
119	0xbefe5117	-0.49671242
120	0xba62f900	-0.000865832
121	0xbe04766b	-0.12935798
122	0x3d83653e	0.06415795
123	0x3b6edbdc	0.0036446964
124	0x3da88bc2	0.08229782
125	0x3cf43938	0.02981244
126	0xbe36a635	-0.1783684
127	0xbcda95ef	-0.026682822
128	0xbe1182e7	-0.14210092
129	0x3e56524e	0.20929834
130	0x3e84066d	0.25786152
131	0x3e05f8cc	0.1308319
132	0x3e801827	0.25018427
133	0x3e1cf222	0.15326741
134	0x3e94bebc	0.2905177
135	0xbc8f4ad9	-0.017491745
136	0xbf08ec3e	-0.53485477
137	0x3d339867	0.043846514
138	0xbebf1c6e	-0.37326378
139	0x3e90323d	0.2816333
140	0xbdb9ed41	-0.09078456
141	0xbe0737c5	-0.13204868
142	0xbdd1c4f5	-0.10242645
143	0x3e315ba9	0.17320122
144	0xbe3a2aef	-0.1818044
145	0x3e943635	0.28947607
146	0xbd58ed1f	-0.05296051
147	0x3d5fb9d1	0.054620568
148	0x3c430df2	0.01190518
149	0x3e80ded7	0.25170013
150	0xbd2936af	-0.041311916
151	0xbd47e6ce	-0.048804097
152	0xbcd47a62	-0.025937263
153	0xbcec4d43	-0.028845435
154	0x3e4eda21	0.20200397
155	0x3d634bd2	0.05549223
156	0xbe92225f	-0.28541848
157	0xbe6693dd	-0.22517343
158	0x3e61a209	0.22034468
159	0x3d8f60ba	0.07000871
160	0xbf09d81a	-0.5384537
161	0x3f13f3b5	0.5779374
162	0xbe318cee	-0.17338917
163	0x3e7e0813	0.24807768
164	0x3ded2ca6	0.11580782
165	0xbc837ead	-0.016051615
166	0x3dd3de94	0.10345188
167	0x3e17ba12	0.14817074
168	0xbd224c89	-0.03962377
169	0x3e157c25	0.14598139
170	0x3eaef46d	0.34170857
171	0xbe714f7b	-0.23565476
172	0x3ec39ad7	0.3820407
173	0xbc09e447	-0.008416242
174	0x3e1bead6	0.15226302
175	0x3adfe295	0.0017081077
176	0x3e14c48e	0.14528105
177	0x3e5cd409	0.2156526
178	0x3e49b814	0.19699126
179	0x3d16d424	0.036823407
180	0xbf14347d	-0.5789259
181	0xbef4fd3a	-0.47849447
182	0xbea01715	-0.3126761
183	0xbe915ddb	-0.2839192
184	0x3e6cfccb	0.23143308
185	0x3dda2bce	0.10652886
186	0xbd803e92	-0.06261934
187	0x3dcf03ac	0.10108122
188	0xbe3f80fa	-0.18701544
189	0x3e51b3e6	0.20478782
190	0xbd6cb57b	-0.05779026
191	0x3da9a15b	0.08282729
192	0x3d0f549e	0.034992807
193	0x3d09c341	0.033633474
194	0x3e1c8175	0.15283759
195	0x3e76e77d	0.24111743
196	0x3e9edc8f	0.31027648
197	0x3e22351b	0.1584057
198	0x3e151e43	0.14562325
199	0x3e2914ce	0.16511843
200	0xbf8d3882	-1.103287
201	0xbf067e6f	-0.5253667
202	0xbe82ba1f	-0.25532624
203	0xbed8727b	-0.42274842
204	0x3c4b137c	0.012394782
205	0xbd3e02f9	-0.046389554
206	0xbdbe7597	-0.09299772
207	0x3e14e8dc	0.14541954
208	0xbc8c7673	-0.017146325
209	0xbc2d1915	-0.010565062
210	0x3b98d78c	0.004664367
211	0x3db46886	0.08808999
212	0xbce5b7e8	-0.028041795
213	0xbd2e370a	-0.042532958
214	0x3da76644	0.081738025
215	0xbd979ab5	-0.07402555
216	0xc027167f	-2.610748
217	0xbd58e1fc	-0.05294989
218	0xbf6ad011	-0.91723734
219	0xbe0bc6c0	-0.13650036
220	0x3e08d213	0.13361387
221	0x3ecd3673	0.40080604
222	0xbea18174	-0.31544077
223	0x3e2b7b0e	0.1674616
224	0xbde1eed5	-0.11031882
225	0xbde1a28c	-0.110173315
226	0xbb9cc2cc	-0.004783964
227	0x3ce98a24	0.028508253
228	0x3d99c5d2	0.07508434
229	0x3e4327b6	0.19058117
230	0x3b80a92a	0.003926416
231	0xbd9a0b36	-0.075216696
232	0x3db17857	0.08665531
233	0x3e7315ab	0.23738734
234	0xbc26b359	-0.010174596
235	0x3e150e46	0.14556226
236	0xbe7764c7	-0.24159537
237	0x3c8a10ff	0.016853807
238	0xbe4e9ce1	-0.20177032
239	0x3de68722	0.11256243
240	0x3dc8033b	0.09766241
241	0x3de36f49	0.1110521
242	0x3d30c2e6	0.04315462
243	0x3beff124	0.0073224474
244	0x3c92675d	0.017871553
245	0xbdafa3f5	-0.08576194
246	0x3dcb5d34	0.099298865
247	0xbd639f12	-0.055571623
248	0xbd9c88ed	-0.07643304
249	0x3e2a8070	0.16650558
250	0xbdde7c2c	-0.10863528
251	0x3e23ec50	0.16008115
252	0xbdb5a7dd	-0.08869908
253	0x3e657ff0	0.22412086
254	0xbe3bbb71	-0.18333222
255	0x3d21ae6f	0.039472993

lstm.weight_hh_l0 f4 [512, 128]
0	0xbdbb4268	-0.09143525
1	0xbd2cfb56	-0.04223188
2	0x3aeaa3af	0.0017901565
3	0x3cdd2852	0.026996765
4	0xba017ffe	-0.0004940032
5	0x3ea6bc48	0.32565522
6	0x3caef492	0.021356855
7	0x3e76afa3	0.24090438
8	0xbdacb9f9	-0.08433909
9	0x3e81d882	0.25360495
10	0x3eca4dc4	0.39512455
11	0x3e9ac536	0.30228585
12	0xbddc52ec	-0.107580036
13	0x3eb26ef4	0.34850276
14	0x3eabecfe	0.33579248
15	0xbdcb365c	-0.099224776
16	0x3f14e1f9	0.58157307
17	0xbdb50c89	-0.088402815
18	0x3e758567	0.2397667
19	0xbd12328f	-0.035692748
20	0x3e16f9ff	0.14743803
21	0x3da94702	0.08265497
22	0xbd870fc4	-0.06594804
23	0x3deb6602	0.11494066
24	0xbd3d9c0c	-0.046291396
25	0x3d7a4e8c	0.061110064
26	0x3e0b97a1	0.1363206
27	0xbe2d0c90	-0.16899323
28	0xbd99b8f8	-0.07505983
29	0xbc917fff	-0.017761229
30	0xbd47d882	-0.048790462
31	0x3e0fbbd6	0.14036497
32	0x3c6299b1	0.013830588
33	0x3e3d3e70	0.1848085
34	0x3d42488c	0.047432467
35	0x3d4858e4	0.048912898
36	0x3d8583ef	0.06519305
37	0xbd89ecfd	-0.06734655
38	0x3e6a9000	0.22906494
39	0x3bc1ad46	0.0059105484
40	0xbeb80470	-0.35940886
41	0xbdbb7318	-0.09152812
42	0xbdaae8d0	-0.08345187
43	0xbe89a4b5	-0.26883474
44	0xbe16479e	-0.14675757
45	0xbdf762e7	-0.12079411
46	0x3d4d5893	0.0501333
47	0x3ca8f616	0.020625155
48	0x3e19542c	0.14973515
49	0x3c29afcc	0.010356855
50	0x3e073296	0.13202891
51	0xbe396ece	-0.18108675
52	0xbd490e5b	-0.049085956
53	0x3e0204ec	0.1269719
54	0xbd396516	-0.04526242
55	0x3d542765	0.051795382
56	0xbe54cb86	-0.20780763
57	0x3a4b1f28	0.0007748478
58	0x3ed85174	0.42249644
59	0xbdd160f3	-0.1022357
60	0xbdb387c0	-0.08766127
61	0xbc332bcf	-0.010935738
62	0xbc678ead	-0.014133138
63	0xbe274ee6	-0.16338691
64	0xbda5f9b4	-0.08104268
65	0x3e5efaf6	0.21775422
66	0x3e47c8a5	0.19510134
67	0xbd676f92	-0.056502886
68	0x3f1b763b	0.6072728
69	0x3db1bb40	0.08678293
70	0x3e1e1c8c	0.15440577
71	0xbc3e1084	-0.011600617
72	0xbe9e53fc	-0.3092345
73	0x3d1feabd	0.039042223
74	0x3ebf60f9	0.37378672
75	0x3d4b8852	0.049690552
76	0x3dfb9f64	0.12286261
77	0xbe24e474	-0.16102773
78	0xbdb50896	-0.08839528
79	0xbdc43e4f	-0.09582197
80	0x3d74ff0b	0.05981354
81	0x3d042b8f	0.032268103
82	0x3ddf9904	0.10917857
83	0x3dc59b48	0.09648758
84	0x3b1b915c	0.0023737764
85	0x3dbd6beb	0.09249099
86	0xbd04ed75	-0.03245302
87	0x3e594b6e	0.2122018
88	0x3e05a333	0.13050537
89	0x3e87e0d3	0.26538715
90	0x3e363015	0.1779178
91	0xbdd2e327	-0.10297232
92	0x3deb06eb	0.11475929
93	0x3e82e187	0.2556269
94	0xbda71e06	-0.081600234
95	0x3de2d84a	0.1107641
96	0x3e8fce3d	0.28087035
97	0x3ce3f8e0	0.027828634
98	0xbd34c37e	-0.04413175
99	0xbd174756	-0.036933266
100	0xbdebbf92	-0.115111485
101	0x3d92f7c2	0.07176162
102	0xbdfdf891	-0.12400926
103	0xbdae9c72	-0.08525933
104	0x3f0c9382	0.5491258
105	0x3d00e4b5	0.031468112
106	0xbe9ad45d	-0.30240145
107	0x3e718cfd	0.23588939
108	0xbee7fb46	-0.45308894
109	0xbd96e7fd	-0.07368467
110	0xbc5dad43	-0.013530078
111	0x3e4f643e	0.20253083
112	0x3e2cb4bd	0.16865821
113	0xbe21a28a	-0.1578466
114	0x3d0623d4	0.032749012
115	0x3dbc045b	0.09180518
116	0x3c09be53	0.008407193
117	0xbd836389	-0.06415469
118	0xbd4be148	-0.04977539
119	0x3d8e198b	0.06938466
120	0xbd0a7467	-0.033802416
121	0x3e3d17dd	0.18466134
122	0xbb759863	-0.0037474863
123	0x3de2328e	0.11044799
124	0xbe6d6d7c	-0.23186296
125	0xba11910d	-0.0005552925
126	0x3d9b61ec	0.075870365
127	0xbdbe5443	-0.092934154
128	0xbe8f0b18	-0.2793815
129	0xbde2916c	-0.11062893
130	0xbc0220fb	-0.0079424335
131	0xbd452043	-0.04812647
132	0xbf08d564	-0.5345061
133	0xbd071fe1	-0.032989386
134	0x3ed2d438	0.41177535
135	0x3ee44eb8	0.44591308
136	0x3e285800	0.1643982
137	0xbdf47573	-0.11936464
138	0x3ee4d26c	0.4469179
139	0x3e90eb61	0.2830458
140	0x3eb787e6	0.3584587
141	0xbd33dd8d	-0.04391246
142	0x3d71c63a	0.059026934
143	0xbedacbc0	-0.42733574
144	0xbc345f0a	-0.011008987
145	0x3ed0548f	0.40689513
146	0xbcf2c0f5	-0.029633025
147	0xbe2bac90	-0.16765046
148	0x3e65c599	0.22438659
149	0x3e2b2f44	0.16717249
150	0xbee28780	-0.44244003
151	0xbf25c3e9	-0.6475206
152	0x3d2eaaf6	0.04264351
153	0x3dac4fee	0.08413683
154	0x3ebc1cef	0.36740825
155	0x3de2bfab	0.11071714
156	0xbaeef0d3	-0.001822973
157	0x3e9a080e	0.3008427
158	0xbdb54be2	-0.08852364
159	0x3e6b0b7b	0.22953598
160	0x3ca3c22a	0.019990046
161	0xbeac01ef	-0.33595225
162	0xbd4cbef6	-0.049986802
163	0xbeaef238	-0.34169173
164	0x3ebf1dde	0.37327474
165	0x3dd7947f	0.1052637
166	0xbedd8a25	-0.43269458
167	0xbec7efe8	-0.3905022
168	0xbf4ca6c2	-0.7994195
169	0xbe50ae45	-0.20378979
170	0xbe5604de	-0.20900294
171	0xbf3ad737	-0.7298464
172	0xbf127bb7	-0.57220024
173	0xbef5f35c	-0.4803723
174	0xbe9a635e	-0.30153936
175	0x3c746c99	0.01491847
176	0xbe89d328	-0.26918912
177	0x3edd35b9	0.4320505
178	0x3f29b351	0.6628924
179	0xbe708e35	-0.23491748
180	0xbf30354c	-0.68831325
181	0xbe53965e	-0.2066283
182	0xbf013aeb	-0.50480527
183	0xbef81985	-0.4845697
184	0xbe5fc006	-0.21850595
185	0x3ef72da4	0.4827701
186	0xbc7a4f75	-0.015277733
187	0xbedabca3	-0.42722043
188	0xbf4476b1	-0.7674361
189	0x3eae536b	0.34048018
190	0x3cfb00ef	0.030640094
191	0xbdf442f5	-0.119268335
192	0x3ea89a93	0.3293043
193	0x3e3d84fb	0.1850776
194	0x3eb91507	0.36148855
195	0xbe1bef6e	-0.15228054
196	0x3f4a8551	0.79109675
197	0xbd511e38	-0.05105421
198	0x3e91205b	0.28344998
199	0xbeb93da4	-0.3617984
200	0x3e2e8b9e	0.17045447
201	0xbd90599c	-0.07048342
202	0x3f3aa682	0.7291032
203	0x3d806dd1	0.06270946
204	0x3f01378a	0.5047537
205	0xbece30e0	-0.40271664
206	0x3e9721c8	0.2951796
207	0xbd36f24e	-0.044664674
208	0xbf398414	-0.7246716
209	0xbc8a9de8	-0.016920999
210	0x3ea9a8c2	0.33136564
211	0x3ba3b202	0.0049955854
212	0x3ea984fe	0.33109277
213	0xbdd7a9bc	-0.10530421
214	0x3dddf63d	0.10837982
215	0xbe6c3c4c	-0.23069876
216	0x3dda3d24	0.10656193
217	0x3ad67177	0.001636072
218	0x3ef81f52	0.48461396
219	0xbf14c642	-0.5811502
220	0x3e6d239c	0.23158115
221	0x3f3beadb	0.73405236
222	0xbee8deac	-0.45482385
223	0xbe00914c	-0.12555426
224	0xbd0e608b	-0.03476004
225	0xbe9f1ddc	-0.31077468
226	0x3e5106b4	0.20412713
227	0xbe88e34d	-0.26735917
228	0xbf1e73d6	-0.618955
229	0x3e103a22	0.14084676
230	0x3e558569	0.20851673
231	0x3d18ca0f	0.037302073
232	0x3ecf8ee1	0.40538695
233	0x3c74cbb9	0.014941149
234	0x3e82889c	0.2549485
235	0xbcb654b3	-0.022257185
236	0xbf607063	-0.8767149
237	0x3e55367b	0.20821564
238	0x3e3b30f2	0.1828039
239	0x3da0caf9	0.07851214
240	0x3efd3597	0.49454948
241	0xbcb4242d	-0.021989906
242	0x3ece79ad	0.40327206
243	0x3e51e88a	0.20498863
244	0x3e310249	0.17286028
245	0xbe8cd1ba	-0.2750376
246	0x3e5dbc38	0.21653831
247	0x3f80698e	1.0032213
248	0x3e818f39	0.25304583
249	0x3e9f9af9	0.31172922
250	0xbe31d57f	-0.17366599
251	0xbeb30b11	-0.3496938
252	0xbe40f8a7	-0.18844853
253	0xbe35dd57	-0.17760216
254	0x3cdc34f0	0.026880711
255	0x3e008559	0.12550868

lstm.bias_ih_l0 f4 [512]
0	0x3edf5c9b	0.4362534
1	0x3f347c71	0.7050238
2	0x3e99f815	0.30072084
3	0x3f1789d6	0.59194696
4	0x3dd7f56e	0.10544859
5	0x3dba2973	0.09089937
6	0x3ed6e70d	0.41973153
7	0x3e14bb0b	0.14524476
8	0x3de1a0a3	0.11016967
9	0x3e00e214	0.12586242
10	0x3f3a7425	0.7283347
11	0x3e8b9885	0.272648
12	0x3f3d02b6	0.7383226
13	0xbd2257e0	-0.039634585
14	0x3db739ba	0.08946557
15	0x3dd897c4	0.10575822
16	0x3de08363	0.1096256
17	0x3e04e0ee	0.12976429
18	0x3dd44bad	0.103659965
19	0x3ec14765	0.37749782
20	0x3ed55838	0.41668868
21	0x3e98b7d8	0.29827762
22	0x3e116790	0.14199662
23	0x3f364db5	0.7121232
24	0x3e1bcfb9	0.15215959
25	0x3e537846	0.2065135
26	0x3eb984a4	0.3623401
27	0x3e0a7b0d	0.13523503
28	0x3eb75a20	0.35810947
29	0x3e5cd330	0.21564937
30	0x3eb1f87a	0.34759885
31	0x3e039758	0.12850702
32	0x3ee805fb	0.45317063
33	0x3e34f74a	0.17672458
34	0x3e8605d7	0.2617633
35	0x3e894292	0.26808602
36	0x3e4d08dd	0.20022912
37	0x3ec47e8a	0.38377792
38	0x3e0300af	0.1279323
39	0x3f081448	0.53155947
40	0x3ecf877c	0.40533054
41	0x3dbff6c7	0.09373241
42	0x3e864717	0.26226112
43	0x3e504019	0.20336951
44	0x3f27c76a	0.65538657
45	0x3e3244c5	0.17409046
46	0x3e21d4e9	0.15803875
47	0x3f24475e	0.641714
48	0x3dde4c5e	0.1085441
49	0x3eb6c24b	0.3569511
50	0x3f034781	0.5128098
51	0xbd193412	-0.037403174
52	0x3e57fe7d	0.21093173
53	0x3e8a9b00	0.2707138
54	0x3e7a3996	0.2443603
55	0x3eb42c30	0.35189962
56	0x3e7e292a	0.2482039
57	0x3e8d2ebc	0.27574718
58	0x3d49ef16	0.049300276
59	0x3ee70e49	0.45128086
60	0x3eb9402d	0.36181775
61	0x3e7b2eed	0.2452962
62	0x3ec62cd5	0.3870608
63	0x3e0e8f78	0.13921916
64	0x3e82b6ad	0.25529996
65	0x3f099b35	0.5375245
66	0x3de711e4	0.11282709
67	0x3ea6b972	0.3256336
68	0x3d1681fa	0.03674505
69	0x3e6bd67e	0.23031041
70	0x3e93b734	0.2885071
71	0x3e200b03	0.156292
72	0x3f278843	0.65442294
73	0x3ea09204	0.313614
74	0x3f31e108	0.69483995
75	0x3e90e54f	0.2829995
76	0x3ecc1117	0.3985679
77	0x3ce907c6	0.02844609
78	0x3db1a4e8	0.086740315
79	0x3e8825bd	0.26591292
80	0x3d462ae6	0.048380755
81	0x3e8167d0	0.25274515
82	0x3e977cdf	0.29587457
83	0x3effb64d	0.49943772
84	0x3eb98962	0.36237627
85	0x3e57fe4a	0.21093097
86	0x3f042d3d	0.5163153
87	0x3d9a2787	0.075270705
88	0x3ed2976c	0.4113115
89	0x3e260595	0.16213067
90	0x3dc2a53c	0.09504172
91	0x3e858504	0.26078045
92	0x3e3aea9e	0.18253562
93	0x3d7ccbf3	0.06171794
94	0x3dcc0699	0.09962196
95	0x3e4790ac	0.19488782
96	0x3e7a2c58	0.24430978
97	0x3ec1c0f3	0.3784252
98	0x3e998e7a	0.29991513
99	0x3ecc6c9b	0.3992661
100	0x3f0b0ea7	0.5431923
101	0x3e8c37d1	0.27386335
102	0x3f06084a	0.523564
103	0x3ed7d974	0.4215809
104	0x3db83567	0.08994561
105	0x3e1e2430	0.15443492
106	0x3df1788b	0.1179057
107	0x3d96af00	0.07357597
108	0x3ef28c5a	0.47372705
109	0x3e146efe	0.14495465
110	0x3e823d8d	0.25437585
111	0x3e213032	0.15741041
112	0x3e832db5	0.2562081
113	0x3e2cd5cb	0.1687843
114	0x3eaba91a	0.33527452
115	0x3e0d9c60	0.13829184
116	0x3e146bd5	0.1449426
117	0x3f391ef3	0.7231285
118	0x3f1b6528	0.6070123
119	0x3e65bd08	0.22435391
120	0x3d9fe6e2	0.07807709
121	0x3eca4b94	0.39510787
122	0x3e54c73f	0.20779131
123	0x3de39c02	0.111137405
124	0x3e6a708a	0.22894493
125	0x3ea6104a	0.32434303
126	0x3e84a93f	0.25910375
127	0x3e3388fd	0.17532726
128	0xbe22536d	-0.15852137
129	0xbe8ac1d8	-0.27101016
130	0xbe657ac1	-0.22410108
131	0xbe824fbc	-0.25451458
132	0x3b97f610	0.004637487
133	0x3dac0ae1	0.084005125
134	0xbe245ac6	-0.16050252
135	0xbe1b45e5	-0.15163381
136	0xbd321cf0	-0.04348463
137	0x3df0f365	0.11765174
138	0xbe977300	-0.29579926
139	0xbe880f08	-0.26573968
140	0xbe8f5062	-0.27991015
141	0x3d82a9f3	0.063800715
142	0xbd775fea	-0.060394205
143	0x3d082078	0.03323409
144	0x3e1e8be3	0.1548305
145	0x3d27f606	0.04100611
146	0xbd8937f4	-0.06700125
147	0xbe3500f2	-0.17676142
148	0xbdea623b	-0.11444517
149	0xbe8d5a2d	-0.2760786
150	0xbd920b98	-0.071311176
151	0xbea6865c	-0.32524383
152	0x3dbec47e	0.09314822
153	0xbda0e2b5	-0.07855741
154	0xbdffdb99	-0.12493057
155	0xbde685a0	-0.11255956
156	0xbd929ba2	-0.07158591
157	0xbd843c98	-0.0645687
158	0xbe1bf8b4	-0.15231591
159	0xbc0f062f	-0.008729502
160	0xbe9f5d97	-0.3112609
161	0xbdd982ac	-0.10620627
162	0xbe1239c3	-0.14279847
163	0xbda97224	-0.08273724
164	0xbe4a1509	-0.19734587
165	0xbdeae096	-0.114686176
166	0x3d667857	0.05626711
167	0xbe87522c	-0.2642988
168	0xbe50064a	-0.20314899
169	0xbd844ee7	-0.06460362
170	0xbccfba5c	-0.025357418
171	0xbea127d0	-0.31475687
172	0xbea55c7b	-0.3229712
173	0xbd26c75f	-0.04071748
174	0x3d9f41b3	0.07776203
175	0xbe85151e	-0.25992674
176	0xbdab1277	-0.08353131
177	0xbdd54122	-0.10412814
178	0xbea10af4	-0.3145367
179	0xbc0f0250	-0.008728579
180	0x39bf7584	0.00036517915
181	0xbd94467b	-0.072400056
182	0x3c2874c8	0.010281749
183	0xbdfabd52	-0.12243141
184	0x3d070748	0.03296593
185	0xbdc00875	-0.09376613
186	0x3a1f2664	0.00060710893
187	0xbe9fd8cb	-0.31220087
188	0x3c9c489b	0.01907759
189	0xbe33f09e	-0.17572257
190	0xbe30acb6	-0.17253384
191	0xbb1ac0cf	-0.0023613458
192	0xbe4a7d5d	-0.19774385
193	0xbdcbd70b	-0.099531256
194	0x3d42e389	0.047580276
195	0xbd874ab7	-0.066060476
196	0xbd20aea0	-0.039229035
197	0xbe3d3f97	-0.18481289
198	0xbcfd4653	-0.030917322
199	0xbda95354	-0.08267847
200	0xbebe22cc	-0.37135923
201	0xbde61d0e	-0.112360105
202	0xbe2a0ff5	-0.1660765
203	0xbbccce72	-0.006250196
204	0xbe554549	-0.20827211
205	0x3d83ced0	0.06435931
206	0x3d632805	0.055458087
207	0xbe750ae6	-0.23929939
208	0x3ce47c2c	0.027891241
209	0xbe3bc20a	-0.18335739
210	0xbe46a021	-0.19397022
211	0xbe82be30	-0.25535727
212	0xbe0bdfa3	-0.1365953
213	0xbdc1bed4	-0.09460226
214	0xbe3561bb	-0.17713062
215	0x3b0471ee	0.002020951
216	0xbe672e43	-0.22576241
217	0x3d1061be	0.035249464
218	0x3e5cb827	0.21554624
219	0xbe2ad7b8	-0.16683853
220	0xbda556c9	-0.080731936
221	0x3d107d32	0.035275646
222	0x3bc96a73	0.006146723
223	0xbdb4d787	-0.08830171
224	0x3d194122	0.03741563
225	0xbe4044e4	-0.1877628
226	0xbe3f7352	-0.18696335
227	0xbd9992cb	-0.07498702
228	0xbe70190c	-0.23447055
229	0xbe090973	-0.13382511
230	0xbe76018b	-0.24024026
231	0xbde6dbfa	-0.11272426
232	0x3e1fae40	0.15593815
233	0xbd48708e	-0.048935466
234	0xbe09c2a6	-0.13453159
235	0x3d8d3aaf	0.06895959
236	0xbef2e177	-0.4743764
237	0xbe2098c0	-0.1568327
238	0xbe114d8a	-0.14189735
239	0xbe52bb0e	-0.20579168
240	0xbeb204ef	-0.3476939
241	0xbdbddf2f	-0.092710845
242	0xbda6a057	-0.08136051
243	0xbda79dfa	-0.081844285
244	0x3ca6d392	0.020364556
245	0xbe689d71	-0.22716309
246	0xbe798adc	-0.24369377
247	0x3e4ef018	0.20208776
248	0xbd8dfa93	-0.06932559
249	0xbde1d343	-0.11026623
250	0xbe52d39a	-0.20588532
251	0x3dd4ab80	0.103842735
252	0xbe0d775a	-0.1381506
253	0xbe849d36	-0.25901192
254	0xbe5de031	-0.21667553
255	0xbe4326ba	-0.19057742

lstm.bias_hh_l0 f4 [512]
0	0x3e8e7163	0.27820882
1	0x3f4d722b	0.8025233
2	0x3ea1f670	0.3163333
3	0x3f00904b	0.50220174
4	0x3d840a9e	0.064473376
5	0x3d899013	0.06716933
6	0x3ee01091	0.4376264
7	0x3e16f375	0.14741309
8	0x3dff1cd5	0.12456671
9	0x3e1c3a3b	0.15256588
10	0x3f262d78	0.6491313
11	0x3e3a7309	0.18207945
12	0x3f3647d7	0.7120337
13	0x3cd98da9	0.026556807
14	0x3cb47226	0.022027086
15	0x3e0deaf6	0.13859162
16	0x3e240886	0.16018876
17	0x3da1b056	0.078949615
18	0x3e1e14c9	0.15437616
19	0x3ec0e6ee	0.37676185
20	0x3eece1aa	0.46265918
21	0x3e8601ba	0.26173192
22	0x3e68a4f9	0.22719182
23	0x3f2d1e31	0.67624193
24	0x3d4a69c6	0.04941728
25	0x3e77c4f3	0.24196224
26	0x3e7b9341	0.24567892
27	0x3e3ee1ee	0.18640873
28	0x3eb31a37	0.34980938
29	0x3db7cb42	0.08974315
30	0x3e6ae0e1	0.22937347
31	0x3dfb9dce	0.12285958
32	0x3ee4cce3	0.44687566
33	0x3e6b7302	0.22993091
34	0x3e3387c5	0.1753226
35	0x3e53a2ef	0.20667623
36	0x3e609aa1	0.21933986
37	0x3e76c1ee	0.24097416
38	0x3e221db7	0.15831648
39	0x3f1315c0	0.5745506
40	0x3eba6c78	0.3641088
41	0x3dd2b12f	0.10287701
42	0x3ecec7dc	0.40386856
43	0x3e431974	0.19052678
44	0x3f39dd79	0.72603565
45	0x3dc652af	0.096837394
46	0x3c0719fa	0.008245939
47	0x3f1c2a2a	0.6100184
48	0x3e106151	0.14099623
49	0x3ea129ff	0.31477353
50	0x3ec23124	0.37928116
51	0x3c788fd7	0.015171013
52	0x3e3c448f	0.18385528
53	0x3e1b87c0	0.15188503
54	0x3e5932e1	0.21210815
55	0x3ead9423	0.33902082
56	0x3e5d36ca	0.21602932
57	0x3e725a8f	0.23667358
58	0x3dcb45e2	0.099254385
59	0x3efa867e	0.48930734
60	0x3e7bd42c	0.24592656
61	0x3e14b01e	0.14520308
62	0x3e97ed6b	0.29673323
63	0x3d2f136e	0.04274314
64	0x3e888bd3	0.26669177
65	0x3efc255f	0.49247262
66	0x3e149bd6	0.14512572
67	0x3eba7e97	0.36424705
68	0x3e38deb5	0.18053706
69	0x3e6f9757	0.23397575
70	0x3e83b4a8	0.25723767
71	0x3e0bf513	0.13667707
72	0x3f2fb537	0.68635887
73	0x3ee7417c	0.45167148
74	0x3f23e859	0.6402641
75	0x3ea54087	0.32275793
76	0x3eedef8d	0.46471825
77	0x3d4fa930	0.05069846
78	0xbc47caf2	-0.012194382
79	0x3e9516cc	0.29118955
80	0x3cf27851	0.029598387
81	0x3e04ef93	0.12982015
82	0x3eb79ca4	0.35861695
83	0x3f1a8f7d	0.60375196
84	0x3eb01070	0.3438754
85	0x3ddc850d	0.10767565
86	0x3f146c46	0.5797771
87	0x3d7515e2	0.059835322
88	0x3ec80f2a	0.3907407
89	0x3d825b45	0.063650645
90	0x3d41d7c6	0.04732492
91	0x3ed72de9	0.42027214
92	0x3e467cef	0.19383596
93	0x3d837da1	0.06420446
94	0x3dfdf6b4	0.124005705
95	0x3e4cc04a	0.19995227
96	0x3e3928af	0.18081926
97	0x3e9cd804	0.30633557
98	0x3ec762e0	0.38942623
99	0x3ec845ef	0.39115855
100	0x3f03a316	0.51420724
101	0x3ea84e12	0.32872063
102	0x3f0a6a77	0.540687
103	0x3eaae151	0.33375028
104	0x3d6a49b6	0.057199202
105	0x3e08d341	0.13361837
106	0x3e5d3c92	0.21605137
107	0x3cb0eeec	0.021598302
108	0x3ef3574e	0.47527546
109	0x3e8bbb5a	0.27291375
110	0x3ea0b854	0.3139063
111	0x3e8bd7b8	0.27313018
112	0x3e920506	0.28519458
113	0x3e8076b0	0.2509055
114	0x3e9c008d	0.3046917
115	0x3ddfb21f	0.10922646
116	0x3e647d14	0.22313339
117	0x3f3d29e0	0.7389202
118	0x3f235dcf	0.63815016
119	0x3e1cdd70	0.15318847
120	0x3e6201c2	0.22070983
121	0x3eb4539b	0.35220036
122	0x3e947833	0.28997955
123	0x3dadd14b	0.08487185
124	0x3e96be7a	0.29442197
125	0x3e81ab27	0.2532589
126	0x3e889b2e	0.26680893
127	0x3e49bc8a	0.19700828
128	0xbe0c2df7	-0.13689409
129	0xbe95080f	-0.2910771
130	0xbe02458f	-0.12721847
131	0xbe259c70	-0.16172957
132	0x3b4f25c4	0.0031608203
133	0xbca7820e	-0.020447757
134	0xbe69f133	-0.22845916
135	0xbd7ad789	-0.061240707
136	0xbccf95b5	-0.02533994
137	0x3e02a587	0.12758456
138	0xbe50612f	-0.20349573
139	0xbebf272b	-0.3733457
140	0xbe935b95	-0.2878081
141	0x3c6bcc35	0.0143919485
142	0x3dc82ed7	0.09774559
143	0x3d55b0e8	0.052170664
144	0x3e719854	0.23593265
145	0xbdefd006	-0.11709599
146	0xbd8b25b3	-0.067943
147	0xbe512215	-0.20423158
148	0xbe3bb715	-0.18331559
149	0xbe9b6dbc	-0.30357158
150	0xbcbd3c1d	-0.023099953
151	0xbe992d95	-0.2991759
152	0x3e144bec	0.14482087
153	0xbcb04724	-0.021518297
154	0xbe540e03	-0.2070847
155	0xbdd9f295	-0.10641972
156	0xbde4cb0b	-0.1117154
157	0xbd220b44	-0.039561525
158	0xbe346256	-0.17615637
159	0xbe0969a5	-0.13419206
160	0xbe4e98c8	-0.20175469
161	0xbd46f8f1	-0.048577253
162	0xbd12654d	-0.03574114
163	0xbdc4cf99	-0.096099086
164	0xbdf6bcff	-0.12047767
165	0xbe329023	-0.17437796
166	0x3dd22f73	0.102629565
167	0xbe4695b0	-0.19393039
168	0xbe932c0f	-0.28744552
169	0xbdbc0570	-0.091807246
170	0x3b89f455	0.004210035
171	0xbea8fa65	-0.33003536
172	0xbe8fb70c	-0.2806934
173	0xbd88a8e5	-0.06672839
174	0x3e086548	0.13319886
175	0xbe65d07c	-0.22442812
176	0xbd70f1e0	-0.05882442
177	0xbde73467	-0.11289292
178	0xbe303a2f	-0.17209695
179	0x3c55a157	0.013038955
180	0xbdfc190e	-0.12309466
181	0xbdc56bff	-0.09639739
182	0xbd8c0bca	-0.06838186
183	0xbd36ac09	-0.04459766
184	0xbdfe02a6	-0.12402849
185	0xbe5492d9	-0.20759143
186	0x3da2d65d	0.07951043
187	0xbeb1b402	-0.34707648
188	0xbe06653e	-0.13124558
189	0xbe2f1df0	-0.17101264
190	0xbd9c769d	-0.07639811
191	0xbdafcc64	-0.08583906
192	0xbe70bf39	-0.23510446
193	0xbe4bfc58	-0.1992048
194	0x3cdb54bb	0.026773801
195	0xbd81a702	-0.06330682
196	0xbdb351e4	-0.08755854
197	0xbe81e12c	-0.25367105
198	0xbc894998	-0.016758725
199	0x3ce14b6f	0.02750179
200	0xbe713707	-0.23556148
201	0xbe55d808	-0.2088319
202	0xbe65a5ee	-0.22426578
203	0xbd1abc0d	-0.037776995
204	0xbe8b9eab	-0.27269492
205	0x3dedc859	0.11610479
206	0xbb447e92	-0.0029982668
207	0xbdfedcd9	-0.12444467
208	0x3dafc9f2	0.0858344
209	0xbcab9211	-0.020943673
210	0xbe290734	-0.16506654
211	0xbe4d4779	-0.20046796
212	0xbe02ce52	-0.12774017
213	0xbdc16dec	-0.09444794
214	0xbe844e05	-0.25840774
215	0xbd2922a8	-0.041292816
216	0xbdd09f42	-0.10186626
217	0xbddb2a66	-0.10701446
218	0x3e0a79f7	0.13523088
219	0xbe0e5a7b	-0.13901703
220	0xbe0b8219	-0.13623847
221	0xbdd45392	-0.10367502
222	0x3d0cba85	0.034357566
223	0xbe119745	-0.14217861
224	0xbc6f0929	-0.014589586
225	0xbe23fa87	-0.16013537
226	0xbe8d5597	-0.27604362
227	0xbe63e4c7	-0.2225524
228	0xbe002607	-0.12514506
229	0xbd4f238c	-0.05057101
230	0xbe929554	-0.28629553
231	0xbdb4646e	-0.08808218
232	0x3cdddcb6	0.027082782
233	0x3bdf18c4	0.006808372
234	0x3c747878	0.0149213
235	0x3b1b972c	0.0023741229
236	0xbeb83bb7	-0.3598306
237	0xbd8325b5	-0.064036764
238	0xbe453cd8	-0.19261491
239	0xbe3c4d1e	-0.18388793
240	0xbeb1acc4	-0.34702122
241	0xbdbb3e4b	-0.09142741
242	0xbdf9a13c	-0.12188956
243	0xbd9b05a1	-0.07569433
244	0xbd828769	-0.06373484
245	0xbe9d281e	-0.3069467
246	0xbe3bdc06	-0.18345651
247	0x3d6a7493	0.05724008
248	0x3da4dd87	0.080500655
249	0xbdf7bfba	-0.12097116
250	0xbdc0922d	-0.09402881
251	0x3cbbbc5f	0.02291697
252	0xbde3efee	-0.11129747
253	0xbe745afc	-0.23862833
254	0xbe6e74c1	-0.23286726
255	0xbe07f91a	-0.13278618

lstm.weight_ih_l1 f4 [512, 128]
0	0x3e1412e2	0.14460328
1	0xbee7cf8a	-0.45275527
2	0x3de231d8	0.11044663
3	0xbd4475c4	-0.047963873
4	0xbd8ffa78	-0.07030195
5	0xbe3d7544	-0.18501765
6	0xbd2d4617	-0.04230317
7	0x3e0a6597	0.13515316
8	0x3e34ff1e	0.17675444
9	0x3d1a6f83	0.037704002
10	0x3e012f8e	0.12615797
11	0x3d89a1ff	0.067203514
12	0xbdd4fc5c	-0.10399696
13	0x3d90a501	0.07062722
14	0xbe0a4408	-0.13502514
15	0xbdf74d6b	-0.12075313
16	0x3e00cf9c	0.12579197
17	0xbcc7f420	-0.0244084
18	0x3da3ea54	0.08003679
19	0xbe505c0c	-0.20347613
20	0x3d2a5337	0.041583266
21	0xbe9e8613	-0.30961666
22	0x3ca04345	0.019563327
23	0x3e0dcf22	0.13848546
24	0x3dd545fd	0.1041374
25	0xbcac9504	-0.02106715
26	0x3e27ec10	0.16398644
27	0xbda15eb7	-0.078793935
28	0xbe2fb9f0	-0.17160773
29	0xbd5efd6e	-0.054440908
30	0xbd34e36c	-0.0441622
31	0xbcc3dea2	-0.02390987
32	0x3e9523ec	0.2912897
33	0xbded44c4	-0.115853816
34	0xbda0a151	-0.07843269
35	0xbe7778e5	-0.24167211
36	0x3dfaa9d3	0.12239423
37	0x3e46adae	0.19402191
38	0x3d7fefac	0.06248443
39	0x3cc0fc8c	0.023557924
40	0x3e302b13	0.17203932
41	0xbd2c7a59	-0.042108867
42	0x3dc5af56	0.09652583
43	0x3c5af1de	0.01336333
44	0x3e1657c3	0.14681916
45	0xbcf8064a	-0.030276436
46	0x3d23384a	0.039848603
47	0xbdd24cc2	-0.10268547
48	0x3e26ba39	0.16281976
49	0x3cdefa27	0.027218891
50	0xbd7bb3f3	-0.06145091
51	0x3b106322	0.0022031744
52	0x3da05f4c	0.078306764
53	0xbdf7bc39	-0.120964475
54	0x3c1ff1ab	0.009762208
55	0xbe13d1db	-0.14435522
56	0xbe2caccb	-0.1686279
57	0xbc7977b8	-0.015226297
58	0xbd3a079c	-0.045417413
59	0xbe14197e	-0.1446285
60	0xbd5ea492	-0.054356165
61	0xbdadb6c4	-0.084821254
62	0x3e285ca6	0.16441593
63	0xbddccd93	-0.10781398
64	0x3b6bda21	0.003598817
65	0x3e6bd7e0	0.23031569
66	0x3e21842a	0.15773073
67	0x3e08e98c	0.13370341
68	0xbe311ac1	-0.17295362
69	0x3ce3892a	0.027775366
70	0x3d913438	0.07090038
71	0xbdb6c393	-0.089240216
72	0xbf1ea3db	-0.61968774
73	0x3e396a3d	0.18106933
74	0x3e04e6eb	0.12978713
75	0x3ea126d9	0.3147495
76	0x3e767190	0.24066758
77	0x3ddebaa5	0.10875443
78	0xbe1006bb	-0.14065067
79	0x3e166d65	0.14690168
80	0x3d3e560f	0.04646879
81	0x3d84ee62	0.064907804
82	0xbad18fc4	-0.001598828
83	0x3f331d05	0.69966155
84	0xbc8f65d3	-0.017504608
85	0x3dff0460	0.12452006
86	0xbe96724a	-0.2938407
87	0x3d64d2e0	0.05586517
88	0x3db21f50	0.08697379
89	0x3d5a9168	0.053361326
90	0x3c91a532	0.017778967
91	0xbe58a61b	-0.21157114
92	0xbcf0fa10	-0.029416114
93	0x3d838c7e	0.06423281
94	0x3ba1d8ee	0.00493919
95	0x3c95f880	0.01830697
96	0x3d2524ff	0.040318485
97	0xbe8e5357	-0.27797958
98	0x3f011584	0.50423455
99	0x3e5dbe85	0.21654709
100	0xbd3484a7	-0.04407182
101	0xbd256b46	-0.040385507
102	0x3e5927ec	0.21206635
103	0xbe2e96ff	-0.17049788
104	0x3e6cc8a3	0.23123412
105	0xbda26a45	-0.079304256
106	0x3e636fa2	0.22210553
107	0x3bf3efd7	0.0074443626
108	0x3e54d56e	0.20784542
109	0xbddabada	-0.1068017
110	0xbdfe1bce	-0.12407647
111	0xbeafc7e9	-0.34332207
112	0xbe619c19	-0.22032203
113	0x3d8aaefe	0.06771658
114	0x3c5e8bcb	0.013583134
115	0xbdccd61d	-0.10001776
116	0x3c9c6f5a	0.019096065
117	0x3ecfda65	0.4059631
118	0xbd4b717f	-0.049668785
119	0xbe2f6460	-0.17128134
120	0x3d2f4076	0.042786084
121	0x3e2927ba	0.1651906
122	0xbd88d3c3	-0.06681015
123	0xbc2cd2da	-0.010548318
124	0xbe0612ad	-0.13093062
125	0xbe2ebfae	-0.17065307
126	0x3e48c716	0.19607195
127	0xbe3e5f77	-0.18591104
128	0xbe58d3ca	-0.21174541
129	0x3ec36ea9	0.38170364
130	0x3dcfd06a	0.10147174
131	0x3e4d8058	0.2006849
132	0xbd38da0f	-0.045129832
133	0x3d538401	0.05163956
134	0xbe60fe68	-0.21972048
135	0x3e4f6729	0.20254196
136	0xbda00c15	-0.078148045
137	0xbce1a0d1	-0.027542504
138	0xbd8bc422	-0.06824519
139	0x3d63fd7c	0.055661663
140	0x3e6668e8	0.22500956
141	0x3bc85fc8	0.0061149336
142	0x3d341569	0.04396573
143	0xbda98289	-0.08276851
144	0xbdba297b	-0.09089943
145	0x3dd0e8bf	0.10200643
146	0xbd66e26c	-0.056368276
147	0x3d09199b	0.033471685
148	0xbe13fe22	-0.14452413
149	0x3e3d1396	0.18464503
150	0x3d5352ad	0.051592518
151	0x3edcd540	0.43131447
152	0x3d37158e	0.04469829
153	0x3d719337	0.058978286
154	0x3d56a879	0.05240676
155	0xbd5c5338	-0.0537903
156	0xbcbd7b62	-0.023130123
157	0x3d751dc4	0.05984284
158	0xbbfb17fa	-0.0076627703
159	0x3e8736a0	0.26408863
160	0x3df8f1c8	0.12155491
161	0xbdde88ba	-0.10865922
162	0xbd318a57	-0.04334482
163	0x3ccf1b8c	0.02528169
164	0x3e812358	0.25222278
165	0x3e077adb	0.1323046
166	0xbc847d3d	-0.016173
167	0x3e1dc2a1	0.15406276
168	0xbe97e393	-0.29665813
169	0x3d94718e	0.07248221
170	0x3c38f25e	0.011288254
171	0x3ebfbafb	0.37447342
172	0x3eb14f4d	0.34630814
173	0x3ccb7231	0.024834724
174	0x3deb2811	0.114822514
175	0xbdc8a87d	-0.097977616
176	0x3dc5e8bd	0.09663532
177	0x3c925cba	0.017866481
178	0xbe72382c	-0.2365424
179	0x3a3a9f0d	0.00071190373
180	0xbaa94a06	-0.0012915737
181	0xbc97934e	-0.018502858
182	0x3a30db80	0.0006746575
183	0xbd1423ad	-0.036166836
184	0xbe46479e	-0.19363257
185	0xbd714b41	-0.05890966
186	0x3d8ef23c	0.06979796
187	0x3da9a4cd	0.082833864
188	0xbd370162	-0.044679053
189	0xbdda86db	-0.10670253
190	0x3da8f471	0.082497485
191	0xbd74ee56	-0.059797607
192	0xbe0b3536	-0.13594517
193	0xbe8c4aa9	-0.2740071
194	0xbe022847	-0.12710677
195	0x3e094f9f	0.1340928
196	0x3ee0529b	0.43813023
197	0x3de69dbd	0.11260555
198	0xbd610307	-0.054934528
199	0x3d83c381	0.06433774
200	0xbe1dc9f7	-0.15409075
201	0x3d4efe42	0.050535448
202	0xbe7ab0a4	-0.24481446
203	0xbb552af8	-0.0032526832
204	0x3ee1d877	0.44110462
205	0xbe0bb558	-0.13643396
206	0x3e16d5f9	0.14730062
207	0xbd20e8b1	-0.03928441
208	0xbbf6fc5a	-0.007537407
209	0x3d005297	0.031328764
210	0x3e5e9d08	0.2173959
211	0x3e38641c	0.18006939
212	0xbc818146	-0.015808713
213	0xbd86f2e6	-0.06589298
214	0xbe3086b6	-0.17238888
215	0x3d3cea2f	0.046121772
216	0x3cf10f7f	0.029426334
217	0x3d45a9c8	0.04825762
218	0x3da349d7	0.07973068
219	0xbd030bc8	-0.031993657
220	0xbb83c4ad	-0.0040212483
221	0x3d8ebc2c	0.06969485
222	0x3c8af11e	0.016960677
223	0x3d2b4d6d	0.041821886
224	0xbce1d644	-0.02756799
225	0xbd834942	-0.06410457
226	0x3ee1c5d4	0.44096243
227	0x3dff5eba	0.124692395
228	0x3e1032db	0.140819
229	0x3e0e77e6	0.13912925
230	0x3da982d5	0.08276907
231	0xbe1641ea	-0.14673582
232	0xbde4a7a4	-0.111647874
233	0x3defee00	0.11715317
234	0x3bec85be	0.0072180917
235	0x3d0d2949	0.0344632
236	0xbdc9cad2	-0.09853138
237	0x3db9ae8e	0.09066497
238	0xbdef6198	-0.116885364
239	0x3dbcd145	0.092196025
240	0xbc2611e6	-0.010136103
241	0xbe485f9c	-0.19567722
242	0xbe818c5a	-0.25302392
243	0x3d2869eb	0.041116636
244	0xbdeb6c68	-0.11495286
245	0xbe8cf482	-0.27530295
246	0x3d4a8245	0.04944064
247	0x3ce9e9a1	0.028553786
248	0x3d11a704	0.03555967
249	0x3c557876	0.013029208
250	0xbcc3ce49	-0.023902075
251	0x3d1ba0f6	0.0379953
252	0x3e131c81	0.14366342
253	0xbe5f7a7c	-0.21824068
254	0xbd931cde	-0.0718324
255	0xbe3e08a6	-0.18557987

lstm.weight_hh_l1 f4 [512, 128]
0	0x3bfd3c6d	0.0077281506
1	0xbd01bec3	-0.031676065
2	0x3da11140	0.07864618
3	0x3d2dff1a	0.042479612
4	0xbd37956b	-0.04482023
5	0x3e7b71a4	0.24555069
6	0x3da51536	0.08060686
7	0x3d87dcef	0.066339366
8	0x3dcb432b	0.09924921
9	0xbcb597d0	-0.022167116
10	0x3ca411a4	0.020027943
11	0x3d98fe09	0.07470328
12	0xbdfee79b	-0.12446519
13	0x3cb33b10	0.02187875
14	0x3e3d68e2	0.18497041
15	0xbe4786ef	-0.19485067
16	0xbdbafa9d	-0.09129832
17	0x3d703a96	0.058649622
18	0xbe0cb7e4	-0.13742024
19	0xbd9e2b58	-0.07723111
20	0x3d444d37	0.0479252
21	0x3b0b60d5	0.0021267433
22	0x3d1cdf6e	0.038299017
23	0x3d8c9ce6	0.068658635
24	0xbc980d49	-0.018561022
25	0xbd48e383	-0.049045097
26	0xbe956f98	-0.29186702
27	0xbe0659cd	-0.13120194
28	0x3da1431a	0.07874127
29	0x3dfcad8e	0.123377904
30	0xbd179902	-0.037011154
31	0xbe6c312a	-0.2306563
32	0xbdd1adfc	-0.10238263
33	0x3cbbc870	0.022922724
34	0x3dc971c9	0.09836156
35	0x3bd85796	0.006602238
36	0x3d01d0b2	0.031693168
37	0xbcb92477	-0.022600396
38	0x3c80dd89	0.015730636
39	0xbdeac8da	-0.11464091
40	0x3d954903	0.072893165
41	0x3dbdd9b0	0.09270036
42	0x3d8a2dfe	0.067470536
43	0xbc9408c7	-0.018070592
44	0xbe15da32	-0.14634016
45	0xbd8dc374	-0.06922045
46	0x3c17ebaa	0.009272495
47	0x3c160c12	0.009158151
48	0x3eb179f7	0.34663364
49	0xbd471f32	-0.048613735
50	0xbe2c7127	-0.16840039
51	0x3dc1ef7d	0.09469507
52	0xbc83039a	-0.015992928
53	0xbdb822b4	-0.08990994
54	0x3e52c7fd	0.20584102
55	0xbe0db32f	-0.13837884
56	0xbd3ab128	-0.045579106
57	0xbd05a42b	-0.032627266
58	0x3cd8b7ad	0.026454771
59	0xbcf8ea92	-0.03038529
60	0xbdbd6de9	-0.09249479
61	0x3e92c1dc	0.28663528
62	0x3dfd1bd2	0.12358822
63	0xbcbdf7d4	-0.023189463
64	0x3d821486	0.06351571
65	0x3b4d3feb	0.0031318616
66	0xbc0b9f59	-0.008521878
67	0x3e6f57ca	0.23373333
68	0x3df98d4c	0.12185153
69	0xbd0f60bd	-0.035004366
70	0x3e4cdc68	0.20005953
71	0x3e0717b2	0.13192633
72	0x3dd48e7f	0.103787415
73	0x3c9231d0	0.017846018
74	0xbe26a5b3	-0.16274147
75	0x3d1a0ebc	0.037611708
76	0xbd3f713f	-0.04673886
77	0x3dbf4bf7	0.09340661
78	0x3d0a1775	0.033713777
79	0x3cd87d63	0.026426977
80	0xbd1801a6	-0.037110947
81	0x3b440200	0.0029908419
82	0x3e11f5f1	0.14253975
83	0xbcc22ae4	-0.023702092
84	0x3e892aa8	0.26790357
85	0x3bdeec71	0.0068030884
86	0x3c617e35	0.013763
87	0xbd8571fd	-0.06515882
88	0x3e126efe	0.14300153
89	0xbda85d8a	-0.08220966
90	0x3d8fe7f7	0.07026666
91	0xbde571a0	-0.11203313
92	0xbd3d36ad	-0.04619472
93	0xbdcb21fc	-0.099185914
94	0xbe5acdf3	-0.21367626
95	0xbe738486	-0.23781022
96	0x3de25b7c	0.110526055
97	0xbde0b0f0	-0.10971248
98	0xbe027ed7	-0.12743698
99	0xbdf1ff56	-0.118162796
100	0x3e53c3c4	0.20680147
101	0x3e0fb395	0.14033349
102	0x3e38ea82	0.18058208
103	0xbd9b019c	-0.07568666
104	0x3cd67d9f	0.026182948
105	0x3e26bb93	0.16282491
106	0x3e3062b8	0.17225158
107	0xbcdea1e1	-0.0271768
108	0xbd930a69	-0.0717972
109	0x3ded5e5c	0.11590263
110	0x3da5269a	0.08064003
111	0xbcbff98f	-0.023434428
112	0x3bf43eec	0.00745379
113	0x3d2117e6	0.039329432
114	0xbcef3b73	-0.029203152
115	0xbe067b00	-0.13132858
116	0x3e29005e	0.16504046
117	0xbd09963c	-0.03359054
118	0x3c4fe1ca	0.01268811
119	0x3e1d70d5	0.15375073
120	0x3d8d2e09	0.06893546
121	0xbdeecb7d	-0.11659906
122	0x3d83208c	0.06402692
123	0xbc2257d1	-0.009908632
124	0xbc923577	-0.01784776
125	0x3da43dbd	0.08019588
126	0xbdad9397	-0.08475416
127	0x3de3f590	0.11130822
128	0x3dee1c6d	0.116265155
129	0xbda80943	-0.082048915
130	0x3d6302aa	0.055422463
131	0xbe155210	-0.14582086
132	0xbcd0055d	-0.025393182
133	0x3da7006b	0.081543766
134	0x3da60e5d	0.08108208
135	0x3c3e196b	0.01160274
136	0xbab15431	-0.0013529119
137	0x3c382670	0.011239633
138	0xbdbf2285	-0.09332756
139	0xbde5731c	-0.11203596
140	0xbcd09da6	-0.025465798
141	0x3def4d59	0.11684675
142	0xbda6c208	-0.08142477
143	0x3e27451f	0.16334961
144	0xbd5ea982	-0.054360874
145	0xbd43610c	-0.047699973
146	0xbd6e9607	-0.058248546
147	0x3d99482f	0.07484471
148	0x3d5022bf	0.050814386
149	0xbbf03df2	-0.007331603
150	0xbd3fdcb6	-0.046841346
151	0x3e035594	0.12825614
152	0xbd02489d	-0.03180753
153	0xbde0fdcf	-0.1098591
154	0x3c4c36cc	0.0124642365
155	0xbd8b3c48	-0.06798607
156	0xbc1d5481	-0.009602667
157	0xbdeb7289	-0.11496455
158	0x3d95481a	0.07289143
159	0xbe4fa627	-0.20278226
160	0xbcc253ad	-0.02372154
161	0x3ca9e0a8	0.020737007
162	0xbc8f9d5e	-0.017531093
163	0xbc967bc0	-0.018369555
164	0x3d2e46a5	0.04254784
165	0xbb5211d6	-0.0032054088
166	0xbeca5d16	-0.39524144
167	0xbdd3860c	-0.10328302
168	0x3da01db6	0.07818167
169	0xbc984c7b	-0.018591156
170	0xbd73ab50	-0.05948955
171	0xbe28c653	-0.16481905
172	0x3db60556	0.088877365
173	0x3cb97703	0.022639757
174	0xbc30ba2b	-0.010786573
175	0xbd119ac8	-0.035548
176	0x3e0dbaf7	0.13840853
177	0xbc59eecd	-0.013301563
178	0xbca49f18	-0.020095393
179	0x3e2cc14b	0.1687061
180	0xbde8c3e5	-0.11365489
181	0xbe059363	-0.13044505
182	0x3db94b5d	0.090475775
183	0x3d86adcf	0.0657612
184	0x3d272cf6	0.040814362
185	0x3d2bec73	0.041973542
186	0x3cc922d3	0.024552738
187	0x3d4b7c32	0.04967899
188	0xbe1617cf	-0.1465752
189	0x3dce2a8c	0.10066709
190	0xbdb0937b	-0.0862188
191	0xbda49534	-0.08036271
192	0xbdb88f97	-0.090117626
193	0xbd9cea54	-0.07661882
194	0x3d9f7e85	0.077878036
195	0x3ce04ddc	0.027380876
196	0x3e9b4314	0.30324614
197	0x3cb187bf	0.021671174
198	0xbd4c2af7	-0.049845662
199	0xbc42ecc3	-0.011897269
200	0x3d41f640	0.047353983
201	0x3d421e31	0.047392074
202	0xbd24834f	-0.040164288
203	0x3d52ae22	0.051435597
204	0xbe3f1c9d	-0.18663259
205	0x3dc805dd	0.09766743
206	0xbcbda474	-0.023149706
207	0xbcf3faa3	-0.029782599
208	0xbdbf8f76	-0.09353535
209	0xbca0fc22	-0.019651476
210	0xbdfdedf2	-0.123989
211	0x3bd5088b	0.0065012625
212	0x3e1849bd	0.14871879
213	0x3e189600	0.1490097
214	0x3da619be	0.08110379
215	0xbd47b3e4	-0.04875554
216	0xbd7f9b87	-0.06240418
217	0xbd2323c9	-0.03982905
218	0x3c82a1b9	0.015946256
219	0xbd7edeed	-0.062224317
220	0x3d2284bf	0.039677378
221	0xbcd814e9	-0.026377158
222	0xbc79b067	-0.0152398115
223	0x3d485867	0.048912432
224	0x3daeeb9f	0.08541035
225	0xbd1b796d	-0.037957598
226	0xbcb2f2ca	-0.021844286
227	0xbdec14f1	-0.11527432
228	0xbd46bf88	-0.048522502
229	0xbd54a761	-0.051917437
230	0xbd071cae	-0.032986335
231	0xbd9a52c6	-0.07535319
232	0xbd89b343	-0.067236446
233	0x3e008ca6	0.12553653
234	0xbd3bcf6c	-0.04585211
235	0x3de3134b	0.11087664
236	0xbb885a0c	-0.004161125
237	0xbe4c21d9	-0.19934787
238	0xbd14aa66	-0.036295317
239	0x3e3252fd	0.1741447
240	0xbe25474e	-0.16140482
241	0xbba5fcc9	-0.0050655347
242	0xbe0623b3	-0.13099556
243	0xbc7e7c0c	-0.015532505
244	0x3d97cc47	0.0741201
245	0xbd43c3f5	-0.0477943
246	0xbccef48e	-0.025263097
247	0x3d12d9f3	0.035852384
248	0x3cf3602b	0.029708942
249	0x385efb3e	5.3162912e-05
250	0x3ce51256	0.027962845
251	0xbd13d5e3	-0.03609265
252	0xbc2553e0	-0.010090798
253	0x3de48a1d	0.111591555
254	0xbd1ab58e	-0.0377708
255	0x3d0b3e0a	0.033994712

lstm.bias_ih_l1 f4 [512]
0	0x3e004b7d	0.12528796
1	0x3c83aa37	0.016072376
2	0x3ddf3134	0.108980566
3	0xbd7717e2	-0.06032551
4	0x3e2eb8b6	0.17062649
5	0x3e012874	0.12613088
6	0x3d6c8c60	0.05775106
7	0xbbe06bb3	-0.0068487762
8	0x3cc6f9c2	0.024289016
9	0x3d930030	0.0717777
10	0xbd1f8923	-0.038949143
11	0x3d21e66f	0.0395264
12	0x3d9846c3	0.07435372
13	0x3df1635d	0.1178653
14	0x3dec2f6b	0.11532482
15	0x3d97ec38	0.07418102
16	0xbd23df05	-0.04000761
17	0x3d6f1106	0.058365844
18	0x3cc12155	0.023575464
19	0xbd86bd2a	-0.06579049
20	0x3d82beb5	0.06384031
21	0x3dc65ccd	0.09685669
22	0x3cc4b789	0.024013298
23	0xbd4b305e	-0.049606673
24	0x3bc5f622	0.006041304
25	0xbda4e9ac	-0.08052382
26	0x3d3044b9	0.04303429
27	0x3db142c2	0.08655311
28	0x3d6878b8	0.05675575
29	0xbd11ba97	-0.035578337
30	0xbb4fc4ef	-0.0031703075
31	0x3e2d34df	0.169147
32	0x3d8f3da4	0.06994179
33	0x3e89f8f2	0.26947743
34	0x3ddb3b67	0.107046895
35	0x3dd94c21	0.106102236
36	0x3cba17b0	0.022716373
37	0x3d5fb550	0.054616272
38	0xbbca34d8	-0.0061708502
39	0x3d07f9c4	0.03319718
40	0x3d8c6fef	0.06857287
41	0x3c1fac4c	0.009745669
42	0x3e0ec6e8	0.13943064
43	0xbd6e6c16	-0.058208548
44	0x3e14991b	0.1451153
45	0x3d861324	0.065466195
46	0x3cc024eb	0.023455104
47	0xbcb2735e	-0.021783527
48	0x3c4bd2b4	0.012440372
49	0x3d417210	0.04722792
50	0x3e32da14	0.17466003
51	0x3deae505	0.11469463
52	0xbb98a0d3	-0.0046578436
53	0x3e1d7ede	0.15380427
54	0x3dfa10ea	0.12210257
55	0xbd7e0455	-0.06201585
56	0x383ae95b	4.4563185e-05
57	0xbb9fd710	-0.0048779324
58	0x3d4c1fee	0.049835138
59	0xbd54f9ab	-0.051995914
60	0x3dd437e9	0.103622265
61	0x3d934b0c	0.071920484
62	0x3d476a15	0.048685152
63	0x3dbd599a	0.09245606
64	0xba6a7c9b	-0.0008944959
65	0x3e136fa3	0.14398055
66	0xb9391de6	-0.00017654113
67	0x3ca5a388	0.02021958
68	0x3dfe1757	0.124067955
69	0x3d97bb44	0.07408765
70	0x3d9cbc07	0.07653051
71	0x3dd5be75	0.104367174
72	0xbd9afefa	-0.07568164
73	0x3de3de3a	0.11126371
74	0xbac61bb0	-0.0015114453
75	0x3c1feb1d	0.009760645
76	0x3e36dc10	0.17857385
77	0x3da7fd42	0.08202602
78	0x3c0f9222	0.008762868
79	0x3c8d680e	0.017261531
80	0x3d5ac051	0.053406063
81	0x3e01b4ea	0.1266667
82	0x3e0061c6	0.12537298
83	0xbc3b6475	-0.011437525
84	0x3d0ec867	0.034859087
85	0xbd25c13b	-0.040467482
86	0xbd7686be	-0.060187094
87	0x3e09cb35	0.13456424
88	0x3d898254	0.06714311
89	0xbd998070	-0.07495201
90	0x3daccc35	0.08437387
91	0xbc4b468c	-0.012406956
92	0x3cc19930	0.023632616
93	0xbd92724f	-0.07150709
94	0xbb554102	-0.0032539968
95	0xbda80961	-0.08204914
96	0xbd8d641d	-0.06903861
97	0x3d96b7e6	0.073592946
98	0x3d77cdd4	0.060499027
99	0xbd0d65e6	-0.034521006
100	0x3ca4aba8	0.020101383
101	0x3c7a551c	0.015279081
102	0xbd140787	-0.03613999
103	0x3c7a8bd2	0.015292125
104	0x3df59fec	0.11993393
105	0x3d19449a	0.03741894
106	0x3d856533	0.06513443
107	0x3d864932	0.0655693
108	0x3d351fa9	0.044219647
109	0xbd5a57d0	-0.0533064
110	0x3e41ab67	0.18913041
111	0x3c46458c	0.012101542
112	0x3d1a262f	0.03763407
113	0xbc4c9f20	-0.01248911
114	0x3c518788	0.012788661
115	0x3e04ea44	0.1297999
116	0x3de59b62	0.112112775
117	0x3dc90ad6	0.0981652
118	0x3c1486a4	0.009065304
119	0x3d24fe6d	0.0402817
120	0x3dcfe7ca	0.10151632
121	0xbbb4e579	-0.0055205193
122	0xbcc9f52e	-0.024653044
123	0x3cb0544e	0.021524575
124	0xbd052067	-0.032501604
125	0x3dceb6a3	0.10093429
126	0x3e00194c	0.1250965
127	0x3c8e6c9f	0.017385779
128	0x3cabda49	0.02097811
129	0xbd367823	-0.044548165
130	0x3d985562	0.074381605
131	0xbd034864	-0.03205146
132	0xbcc09b67	-0.023511602
133	0x3cffd884	0.031231172
134	0x3d966db2	0.073451415
135	0x3e449d22	0.19200566
136	0x3d4e6760	0.050391555
137	0x3d6a13f5	0.05714794
138	0xbd9d7dff	-0.076900475
139	0xbd761022	-0.06007398
140	0x3d3a486b	0.04547922
141	0x3d6abb34	0.057307437
142	0xbcca5841	-0.024700286
143	0x3d9876d0	0.07444537
144	0x3c397d6c	0.011321407
145	0xbca401b5	-0.020020345
146	0x3e0cc37c	0.13746446
147	0x3dc31efd	0.09527395
148	0xbdf256b0	-0.118329406
149	0x3daec448	0.085335314
150	0xbc0e7356	-0.00869449
151	0x3d0aae9f	0.033857938
152	0x3d5b0be6	0.053478144
153	0xbd979be0	-0.07402778
154	0xbbd01a34	-0.00635078
155	0x3ab7c24a	0.0014019695
156	0x3c836af9	0.01604222
157	0xbcfb25d2	-0.030657683
158	0x3dde1873	0.10844507
159	0x3cc491ae	0.023995247
160	0x3da615e1	0.08109642
161	0xbcf10429	-0.029420929
162	0x3d8eac9d	0.06966517
163	0xbc247b51	-0.010039167
164	0x3c0b78e9	0.008512714
165	0x3d8d4445	0.06897787
166	0x3cc219ca	0.023693938
167	0x3d6646e1	0.05621994
168	0x3dd55888	0.104172766
169	0xbd7ea7d7	-0.062171783
170	0x3e05de9b	0.13073198
171	0x3c779789	0.015111812
172	0x3d819fc4	0.06329301
173	0x3d89322b	0.06699022
174	0x3d8a3b57	0.067495994
175	0x3db0f6e8	0.08640844
176	0x3e25699c	0.16153568
177	0xbd76b441	-0.060230497
178	0xbd82957f	-0.0637617
179	0xbafefb3d	-0.0019453537
180	0xbc25c781	-0.010118366
181	0xbd893c2a	-0.067009285
182	0xbd83faa5	-0.06444291
183	0xbd5b4c93	-0.053539824
184	0x3d300c45	0.04298045
185	0x3d5699b6	0.052392684
186	0x3cc9ee95	0.024649898
187	0x3d19a641	0.037512068
188	0x3d15601b	0.036468606
189	0x3ce37f4d	0.027770663
190	0x3c89e500	0.016832829
191	0x3adf9e04	0.0017060642
192	0x3c555b1e	0.013022212
193	0x3d4433fc	0.04790114
194	0x3e1a6c42	0.1508036
195	0x3e30ef93	0.1727889
196	0xbdfbac34	-0.122887045
197	0xbc888268	-0.016663745
198	0x3da69826	0.08134489
199	0x3d7261b3	0.059175204
200	0x3ca00d78	0.019537672
201	0x3d6977c4	0.056998983
202	0xba94057a	-0.0011293136
203	0x3d3ef176	0.046616994
204	0xbc5c9ab8	-0.013464622
205	0xbca19b05	-0.01972724
206	0x3cc77595	0.02434806
207	0x3e0775b5	0.13228495
208	0xbd06f05d	-0.032944072
209	0xbe04ba15	-0.1296161
210	0xbb9156c5	-0.0044353926
211	0xbcd0661f	-0.02543932
212	0x3dd93c90	0.106072545
213	0x3d1385c3	0.036016237
214	0x3bc6db47	0.0060686204
215	0x3d57ce74	0.052687123
216	0x3d2f7f9f	0.04284632
217	0x3d2effa8	0.04272428
218	0x3db853a4	0.09000328
219	0x3d9f7dbf	0.07787656
220	0xbd1385db	-0.036016326
221	0x3c88d24d	0.016701842
222	0x3cbb0404	0.022829063
223	0x3d50805b	0.05090366
224	0xbc54a5fe	-0.012979029
225	0x3c6661c2	0.014061393
226	0x3d6d4b79	0.057933304
227	0x3cce413f	0.025177596
228	0xbdb45b7f	-0.08806514
229	0xbb19a7e0	-0.0023446009
230	0xbc179841	-0.009252609
231	0x3dc6487a	0.096817926
232	0x3d805d54	0.06267801
233	0x3d6a5234	0.0572073
234	0x3e0fa819	0.14028968
235	0xbcdbbcae	-0.026823368
236	0xbc82d603	-0.01597119
237	0xbda5d5a4	-0.08097389
238	0x3b0a2d80	0.002108425
239	0x3b82aa44	0.0039875824
240	0xbc21667e	-0.009851096
241	0xbcb593ec	-0.022165261
242	0x3d84f273	0.06491556
243	0x3cd0320f	0.025414495
244	0x3d1469ca	0.0362337
245	0x3dfe5cf5	0.12420074
246	0xbd805b8d	-0.06267462
247	0xbd8179aa	-0.06322034
248	0x3d3a147e	0.0454297
249	0xbd8213ca	-0.06351431
250	0x3c5cb9e0	0.01347205
251	0x3dc8a207	0.09796529
252	0xbd107fc1	-0.035278086
253	0xbd5cf30b	-0.05394272
254	0x3bdbe3a1	0.006710485
255	0x3d1b8f67	0.037978556
